scripts/nn_dinov2_weighted_gray.pth (torch, 669544 bytes, 6 tensors)

model.0.weight f4 [256, 384]
00000000: a90f 05bd c3d1 0bbc c1df 08bc 937d c93c
00000010: 0cc0 faba 7031 afba 4678 d9bb 16cf a83c
00000020: 4f82 7d3b 6932 7639 251c 153d 0c6f ab3b
00000030: f340 6fbd 7295 89bc ce49 533c 7ade 7b3b
00000040: c5ae 1abd cf8e 20bd 56fe e4bb d816 eebb
00000050: e5cc 3c3c 81b9 5ebd 1eb4 073d bffd 47bd
00000060: dc23 593b 7ea4 cebc 4356 953c 574a 573c
00000070: ee21 39bd ae8c 5abc 4444 22bd a9ea 673c
00000080: 046c 4fbd 9278 28bd 2ac8 46bc fcfa 863c
00000090: 1a89 173d 413c e13c fc14 dabc 318d 71bc
000000a0: b523 3ebd f0d4 2b3c 02b5 ee3b 7c88 c6bb
000000b0: 9e41 30bc 5068 97bc beae 32bc 5549 3cbd
000000c0: bf97 24bd 3681 0d3d c0c9 103d 0826 35bd
000000d0: 00af 21bd 8299 f1bb dd5e 25bd ff37 663c
000000e0: 3936 2cbc 77e1 253c 3f6a 68bd 6e92 66bd
000000f0: f048 23bd 1153 6cbd 2bb4 b2bc 7e6d c7bc
00000100: fead 303d d18e 30bb b330 0ebd 24f7 2d3d
00000110: a4cd 163b e19b e3bc c762 763c 822d 933c
00000120: d1c1 16bd 7c6f 3bbd 8b2d 38bd e98c 513c
00000130: b9ae 4dbc 3779 593b 2d76 383d 0c8c c7bc
00000140: 5083 fa3c efe2 7e3a 60b4 fdbc 3505 3fbc
00000150: 2363 673c ab36 ebbc 6b51 0eba 55fe 753c
00000160: f540 df3c d3e8 55bd 8ce4 253d 856e f0bc
00000170: 73f0 9bbc bd74 efbc de26 1fbd b098 d7bc
00000180: 30b6 0c3d 419b fc3c 9eee 823c 8095 c83c
00000190: 9fe7 b8bc 40ee 96bc 3f13 2cbc 68c8 e93c
000001a0: c816 96bc 19bd 1f3d a394 d3bc b67f 803c
000001b0: 29ff 8fbc 1ebe 1ebd 75e8 f93c ebfb 22bd
000001c0: 06ba 5aba eb46 693d 6db9 053d c389 3b3d
000001d0: 5c3b 023d 3661 713d 3e30 913c 8b98 fe3c
000001e0: 5e27 923c c36e f63c 2c9d a73b ebfc 0b3d
000001f0: 17e4 ca3c 338b f13c 1731 23bd ea7a 8dbc
00000200: c408 2dbd c2ef 263c 382c df3c 2294 2fbd
00000210: 3fbc 06bd d9db d5bc 4e5f bd3c 252f 023d
00000220: 7a7f 76bb 3e9b 3abc 620f 03bd e7c6 593d
00000230: 26e4 e4bc 267f 03bc 45d0 27bd 210b 683c
00000240: 498a edbc c769 2dbd c14c cf3c b5b1 25bd
00000250: 48b1 be3b 4d09 7a3c 13f4 f43c e431 153d
00000260: 93ee d3bc db67 5bbd fcab b0bb 423b 893c
00000270: c779 ebbc a1c9 30bd 9037 f2bc 7aa0 9b3c
00000280: 568b 913c 8cca 01bd 6708 2a3d 4bd6 503d
00000290: 008e 1fbd a465 d9bc 7315 2d3d b642 473d
000002a0: d37d eebc 8d95 7abc 1e83 d6bc 54de 8ebc
000002b0: fed8 1abc 8858 503d af3a 54bc 2bd8 323b
000002c0: 79fa b73c b43c 213c 23fc 0bbd ae17 483d
000002d0: ce34 f1bc b100 793c 90b8 1cbd 5970 303b
000002e0: 8595 f1bc 8660 893c da6f 52bd 01a3 77bc
000002f0: 3eeb a7bc 8e6a 7fbc 418e a23b af48 14bd
00000300: c841 323d 71e7 a1bc da57 e73c 4749 0fbd
00000310: 0d07 81bc 3a46 14bd a688 f83b a836 e0bc
00000320: 461b 083c a0aa f23b b3c5 a43b 7eee 50bd
00000330: 4e2d e33c 5b30 553b 5c53 32bd 30c5 fd3c
00000340: 59f9 0d3d 4138 cebc d6d6 06bd bd43 173d
00000350: 853c bd3b 3717 f7bc 9cb0 243d 9ece 683c
00000360: 6c7d 1dba e0c0 233d 36f5 e33c b32c b63c
00000370: a9f5 ddbc 5966 d8bc a32d 963b ef85 e73c
00000380: b3a8 b1bc 16df 883c 965f a13c 76bc ff3b
00000390: a1b3 97bc 391c 1f3d 3107 a6bc a2ef 313d
000003a0: de84 ebbc 90ec e53c e576 6c3d 115b f5bc
000003b0: 81cb 44bc 1407 7e3c c92c 043d aa3c 723c
000003c0: 5913 093d 9537 b5bc 8e98 7d3c 507f a3bc
000003d0: eec9 dabc cc4c 243d 8fbc 40bb 13b3 693d
000003e0: 5f5e ffbb 1f57 2bbb fb8a 923c 9eba b33c
000003f0: 9ee8 403d 41be 04bd c7cb c33c cd6a 1dbd
-0.032485638 -0.008533898 -0.008354128 0.024596011 -0.0019130721 -0.0013366174 -0.006636652 0.020606559
0.0038682406 0.00023479167 0.036403794 0.0052317437 -0.05841155 -0.016794894 0.012896014 0.0038432167
-0.03776433 -0.039198693 -0.006988327 -0.007265907 0.01152346 -0.05437613 0.033130758 -0.048825976
0.0033132946 -0.02522492 0.01822961 0.013140283 -0.045198373 -0.013339205 -0.039615884 0.014155068
-0.05064012 -0.04113061 -0.012132684 0.0164771 0.036995985 0.027494552 -0.026621334 -0.014743135
-0.04642077 0.01048778 0.0072847614 -0.0060587507 -0.010757832 -0.018482357 -0.01090592 -0.045968372
-0.04018378 0.034547053 0.035348654 -0.044225723 -0.039473534 -0.007373036 -0.04037367 0.014051436
-0.010510975 0.010124556 -0.05674195 -0.05629199 -0.03986448 -0.057696406 -0.021814426 -0.024344202
0.043134682 -0.0026940594 -0.034714412 0.04247202 0.0023010755 -0.02778429 0.015038199 0.017966036
-0.03680593 -0.045760617 -0.04496531 0.012789943 -0.012553864 0.0033183822 0.045034576 -0.024358772
0.030580193 0.0009723147 -0.030969799 -0.011658956 0.014122757 -0.028712591 -0.00054290023 0.015014251
0.027252654 -0.05222399 0.040501162 -0.029349575 -0.019035554 -0.02923047 -0.038855426 -0.026317924
0.034353435 0.03083575 0.015982922 0.02448535 -0.022571383 -0.018424153 -0.0105026355 0.028537944
-0.01832141 0.038998697 -0.025827711 0.015685897 -0.017577725 -0.03875553 0.030506352 -0.03979103
-0.00083437597 0.0569524 0.03264754 0.045785677 0.03179489 0.0589306 0.017723199 0.031078598
0.017841037 0.030082112 0.005115172 0.03417675 0.024766965 0.02948532 -0.039841738 -0.017270524
-0.042244688 0.010188999 0.027242765 -0.04286588 -0.03289437 -0.026105808 0.023116734 0.03178324
-0.0037612603 -0.011389552 -0.031997092 0.053168204 -0.02794082 -0.00802592 -0.040970106 0.01416281
-0.028996604 -0.042337205 0.025305154 -0.040452678 0.0058194734 0.015261007 0.02990154 0.036424533
-0.025870597 -0.05356584 -0.005391596 0.01675189 -0.028744591 -0.04316104 -0.02956751 0.01899742
0.017766636 -0.031687304 0.04151192 0.050985616 -0.03895378 -0.026537724 0.042256784 0.048647605
-0.029112732 -0.015294445 -0.026185568 -0.017439999 -0.009451149 0.05086568 -0.012953444 0.002728949
0.022458302 0.009841133 -0.034176003 0.048850708 -0.029444125 0.015197919 -0.03826195 0.0026922433
-0.029490242 0.016769659 -0.0513762 -0.015114547 -0.020497914 -0.015589369 0.0049608056 -0.03620213
0.043519765 -0.01976368 0.028240133 -0.034981992 -0.015750432 -0.036199786 0.007584649 -0.027369812
0.008307284 0.007405594 0.0050284504 -0.051008694 0.027731564 0.0032530043 -0.04353653 0.030977815
0.034661625 -0.025173308 -0.032919727 0.036929835 0.0057750368 -0.030162437 0.04020749 0.014209418
-0.0006007764 0.03997886 0.027826887 0.022238111 -0.027094679 -0.02641599 0.004583077 0.028262107
-0.021686887 0.016707938 0.0196989 0.0078044487 -0.01851827 0.038845275 -0.020267101 0.043441422
-0.02874988 0.028066903 0.057730574 -0.02995065 -0.01201141 0.015504617 0.032269273 0.014784971
0.033465717 -0.02212123 0.015478266 -0.019958168 -0.026707616 0.0401123 -0.0029409265 0.057055544
-0.0077932323 -0.0026144458 0.017888537 0.021939572 0.04709684 -0.032408003 0.02390088 -0.03843193

model.0.bias f4 [256]
00000000: 7b9c 9abc 6201 3bbd 23a8 8b3d 83c0 373c
00000010: e4a2 1fbd ca9c 543d 84ce 253d 7ddd e8bc
00000020: 653e 903d 428c 5a3d 7462 053d 88e5 44bd
00000030: cb91 eabc 9ec7 0ebd 308c 623d c927 423d
00000040: 1c07 5a3d eb22 703d 4ab2 de3c 344d ae3c
00000050: f1c2 febc 20f6 89bc ee65 d83c df33 413d
00000060: 6f2a 353d 0b44 5d3d cf18 46bd 037e 663c
00000070: b7d4 50bc a00d 503d 1432 893d 7cde 6abc
00000080: b45f 49bc 246c 2b3d 99c8 cfbc 43b4 f3bc
00000090: 9efa 3cbd 3173 1f3d 22f2 8cbc c97b 1bbc
000000a0: fe40 843d 0981 44bc 1f6b 6c3c e7c9 963b
000000b0: 3ed9 16bd 2403 0ebd 8fdc 11bd 911c acbc
000000c0: 4025 38bc 96ed 37bd 30f9 363d 3004 dfbc
000000d0: 13ba d5bc 3e06 903d f4ba 433d e36a 813d
000000e0: fb6a 5e3d e011 4c3d 2480 0c3d e2b2 53bc
000000f0: 2fbf ee3c f18f d8bc 8cc9 50bd 2123 a7bc
00000100: b27c 283d 0173 ae3c 8cc1 db3c 24ab 14bd
00000110: e435 883d 3427 2c3d 5759 423d 474d 6b3d
00000120: f338 403d ce22 b1bc b0d5 3fbc 1924 483d
00000130: f662 17bd 290e fa3c 8db3 4bbd 099d 363d
00000140: 30af 94bc d84b 31bc 04e5 f1bc 8f60 8d3c
00000150: 329a 30bd 96c2 0cbd 3077 303c 97ee 583c
00000160: 9e11 45bc 435a 2d3d 798b 853d 04f6 533d
00000170: 2c1c 3a3d 6efc b53d c2fc 543d d80a 0f3d
00000180: a17a 18bd ebdc 25bd d497 343d 077e 703d
00000190: 1a5d e43c 4575 e4bc 13aa 1b3c 1043 f3bc
000001a0: 14cc 22bd aa0f 8bbc e9f8 3ebc 7585 52bc
000001b0: 3a3d 3cbd d38f 3b3d a165 4bbd 3469 203d
000001c0: d400 3cbc 7eb2 1cbd df8c 543d 1dd9 35bc
000001d0: a537 153d ee5f 50bd 7a44 a43d 9709 a03c
000001e0: 3688 c03c e862 a6bc 0499 01bd 5e04 1c3d
000001f0: 6104 4fbd 2916 4bbd be69 473d fa9c 813b
00000200: 2455 36bc 18ce f9bb 3196 c53c 9913 7b3d
00000210: fa67 853d 5580 5c3d c6fc 83bc 6340 423d
00000220: 56bd 363d 3327 ff3c 8149 503d 3b68 09bd
00000230: 25b5 1c3d 7be7 f0bc a9cf 3a3d 78c2 3ebd
00000240: f124 433d afa3 473d 7d71 fdbc 7349 dfbc
00000250: a0d7 83bc 3be4 3bbd 70d2 093c afb9 603d
00000260: 1c36 533d 8bc0 0f3d f416 d5bc a6d8 ea3c
00000270: f684 a4bc 0fb3 1f3d 186a d6bc 1965 333d
00000280: 545f 95bc 0359 363d c491 603d 7a01 4f3d
00000290: e590 30bd 9b87 15bd 504a 17bd f924 2b3d
000002a0: b41e cf3c 93b3 503d f4e0 1bbd 829f 81bc
000002b0: a2cf 213d 1aa7 f73c 3fd5 443d 4542 34bd
000002c0: bf5a 02bd 8ad9 9ebc 6f9a 4c3d a344 1dbd
000002d0: c8c0 403d 668a b63d e4c6 98bc eb5c 863d
000002e0: 07c4 073d 4620 85bc 85d0 e1bc 9f0c 03bd
000002f0: 23a9 b9bc aecd 333d 8f19 ec3c 2d51 203d
00000300: fe3c 86bc f42d 0f3d 77e1 8d3d 0ca9 63bc
00000310: 0b93 4fbd f80d 62bc a8f7 38bd 21c6 c4bc
00000320: 2839 7ebc 9666 2bbd 0cfe 39bc dc00 d13c
00000330: 3505 333d 8b12 1bbd a193 a73d 07c3 1ebd
00000340: dd0b 4ebd 6fb5 413d dbce 4d3d 4ac2 313d
00000350: 964b 1cbd e57c cfbc 8577 363d d4f1 ecbc
00000360: 0e18 e7bc 04e3 3ebd dee1 273d dccd 4abc
00000370: 0c70 25bc 0cbd 78bc 3cab 53bc ded0 38bd
00000380: 4b63 9c3c 2ddb 103d f06a fdbb 6e48 35bd
00000390: 997a fa3c 44e0 353d 394f 21bd f3c8 613d
000003a0: 6d95 50bd 6ebe 8cbc 3a26 91bc 67ec 4d3d
000003b0: 2562 aebc a956 47bd f1d4 24bd a533 2c3d
000003c0: 19b2 c73c 2cac 973c b81a dabc 998b 7b3d
000003d0: 8e2b 88bc 7faa de3c 4439 303d 6680 b1bc
000003e0: ca7a 3dbd f9e3 b0bc 2e79 5ebc ec84 67bc
000003f0: 1b64 fbbb 6c57 5d3d 473c 6c3d febc 89bc
-0.018873444 -0.045655616 0.06819179 0.011215332 -0.038973704 0.05190734 0.04048015 -0.028425926
0.07043151 0.053356417 0.032564595 -0.04807046 -0.028633973 -0.03485834 0.055309474 0.047401223
0.053229436 0.05862705 0.027184624 0.021277048 -0.031098815 -0.016840994 0.026415791 0.04716861
0.04422992 0.05401997 -0.048363503 0.0140681295 -0.012746028 0.050794244 0.06699005 -0.014335271
-0.012290884 0.041851178 -0.025364207 -0.029749041 -0.046137445 0.038928214 -0.017205302 -0.009489962
0.06457709 -0.011993655 0.0144298365 0.0046017054 -0.036828272 -0.034670964 -0.03561073 -0.021009715
-0.01123935 -0.044904314 0.044671237 -0.027223676 -0.026089704 0.070324406 0.047785714 0.06319215
0.054301243 0.049821734 0.034301892 -0.012921067 0.029143898 -0.026435824 -0.05097346 -0.020402493
0.041134544 0.021295073 0.026825689 -0.036296025 0.06650904 0.042029575 0.047448482 0.057446744
0.04692931 -0.021623041 -0.011708662 0.04886255 -0.03695961 0.03052433 -0.04973178 0.044583354
-0.018149942 -0.010821305 -0.029528148 0.017257957 -0.043115802 -0.03436526 0.010770604 0.013240478
-0.012028126 0.04232241 0.06520743 0.05174829 0.045437023 0.08886038 0.05199886 0.03492245
-0.037226323 -0.040493887 0.044090107 0.05871394 0.027876426 -0.02788795 0.009500998 -0.029695064
-0.039745405 -0.016975243 -0.0116560245 -0.012849201 -0.045956828 0.04579146 -0.049657468 0.03916283
-0.011474807 -0.03825616 0.051892158 -0.011099127 0.03643002 -0.050872736 0.08020873 0.019535823
0.02350245 -0.020310834 -0.031640068 0.038090102 -0.050541285 -0.04958168 0.048684828 0.0039554806
-0.011128698 -0.0076234452 0.024119468 0.061297987 0.065139726 0.053833324 -0.016111743 0.047424685
0.04461416 0.031146621 0.05085135 -0.033546668 0.03825869 -0.029407253 0.045608196 -0.04657218
0.047642652 0.048740085 -0.030937904 -0.027256703 -0.016094029 -0.045871954 0.008411989 0.05486458
0.051565275 0.035095733 -0.026011921 0.02866776 -0.020082932 0.038989123 -0.026173636 0.043797586
-0.018233933 0.044518482 0.054826513 0.050538518 -0.043106932 -0.036506277 -0.036936104 0.041783307
0.025283195 0.050952505 -0.03805633 -0.01582313 0.039504655 0.030231047 0.04805493 -0.044008512
-0.031824823 -0.01939084 0.049951967 -0.038395535 0.04705885 0.08913116 -0.018649526 0.065606914
0.03314593 -0.01625074 -0.02756525 -0.03199446 -0.022663658 0.043897323 0.028820781 0.039139915
-0.016386505 0.034955934 0.0692777 -0.013895284 -0.05067734 -0.013797276 -0.04515806 -0.024020256
-0.015516557 -0.04184588 -0.011352073 0.025513105 0.043706138 -0.03785948 0.08182455 -0.03876021
-0.050304282 0.04729217 0.0502461 0.04339818 -0.038158022 -0.025328109 0.044547576 -0.028923906
-0.028209712 -0.046603218 0.040986888 -0.012378182 -0.010097515 -0.015181791 -0.012919243 -0.045121066
0.019090315 0.035365272 -0.007733695 -0.044258527 0.030576037 0.04440333 -0.039382193 0.05512328
-0.050923754 -0.017180648 -0.017718423 0.05027428 -0.021287033 -0.04866663 -0.04024214 0.04204144
0.024376916 0.018514715 -0.026624069 0.061412428 -0.016622331 0.027180908 0.043023363 -0.02166767
-0.04625968 -0.02159308 -0.013578696 -0.014130812 -0.0076718456 0.05403845 0.057674672 -0.016813751

model.2.weight f4 [256, 256]
00000000: aa0e 14bd 1031 9a3b a5a4 6539 657b 5d3d
00000010: 2438 9c3c c99c 10bc a0fe d73b 4e2b 20bd
00000020: e9d2 9fbc 875f 1fbd f2ad 5bbc bc10 0bbd
00000030: a8d1 7b3d b8d7 c1bc d8a4 09bc 419f d2bc
00000040: d1cb 24bd 5689 8b3a 3279 e8bc 9004 8f3c
00000050: 0aaa 133d a86a 073d 0896 6ebc 48a1 923c
00000060: 1688 2cbb 618d 223c 9494 d5bc f09e 783c
00000070: 7c68 f33c 9e06 313d 7347 96bc c0ca 453c
00000080: b0e8 ed3c 860d 73bd 60b1 e43b 20a6 bfbb
00000090: 20a0 6c3b 708c 4f3d e01c 39bb 34b7 b93c
000000a0: 87b2 14bc 12d2 5e3d 1c7c 293d 0308 c1bc
000000b0: 307b 5f3d ee03 1c3d 5eeb 73bd 8eab 2fbd
000000c0: f09a 363d 8090 9d3b 6ac6 593d 34eb 763d
000000d0: 70aa c33c 1b2a 5fbd 5b09 b9bc 05c3 043d
000000e0: 35fe bf3c 3af4 30bd 0692 c5ba e89b edbc
000000f0: 82e1 23bd 7c98 873c b09d 20bd e870 cf3c
00000100: d246 a5bb e60d ea3c bc93 ebbc c0da 85bc
00000110: b477 49bd 62f7 f0bc d3f7 313d 2024 c43c
00000120: 6a60 4dbd e422 333d d83f fa3c ce4d 5dbd
00000130: ae8d 0cbd 50fb 19bd 00cb 79bd 702c 833a
00000140: ecaa 47bd 7ea2 213d 409d 2b3c 60c3 0dbc
00000150: 2c53 34bd 00ba fdb9 e80b c73c e643 40bd
00000160: 0852 76bd 7260 62bc 07a8 f83c 0db2 33bd
00000170: 815b f1bc efd6 6eb9 d0bb 81bd bc5a 733d
00000180: 80f0 24ba fefc 343d 4757 203c 49d5 a23c
00000190: 12b3 093d 90d2 ae3b acb9 37bd 2c01 f9bc
000001a0: e6b9 48bd 6c9b 7b3d 00c9 63bb d02b e53b
000001b0: d652 0fbd be73 dfbc 6a46 0a3d d9be 31bd
000001c0: b0e9 b73b 80ec 15bd a321 4abd cead 0c3d
000001d0: b096 5abd 761e 623d f447 64bd f041 e2bb
000001e0: 6066 48bc 0080 b338 00d8 a039 69ed b93c
000001f0: 38aa 3e3d 9236 6dbd 2a3e 65bc d00b e73c
00000200: 8003 b33b 803e 5d3d 79e6 43bd 6919 1abd
00000210: a74d fcbc 9da1 ddbc b06b dc3c 9c1f 29bd
00000220: 2db7 fdbc 985c 183b ae8a 21bc 5aa7 193d
00000230: c321 cebc 4c56 b2bc 803a 6dbd b862 5dbd
00000240: 420e 74bd 3b85 4d3d 5a93 21bd 3e40 3b3d
00000250: 08c3 0dbd b0ac 56bc 70ea 14bc 67dd 393d
00000260: 0eb0 0fbd 22fa ecbc 70f6 033c ffbd 0abc
00000270: 7e8c 0cbd 597e 083d 22cf 193d ec82 b73c
00000280: 240e ca3c 63fe 103d 6433 3dbc 1ae9 8abd
00000290: 80f3 59ba 6440 dbbc d042 4b3d 8b73 7ebd
000002a0: e5f3 e13c 8284 3c3d 803f e0bc 70ec a53b
000002b0: 86a8 5d3b 9c62 89bd 35db 81bd 4039 94bc
000002c0: ec9e ff3c 26bb 67bd 8d20 113d b05e b1bc
000002d0: 4611 c2bc 0a17 0d3d 6c68 e1bc 342e 63bd
000002e0: 6b98 df3c 24cd 223d a471 993c 7858 74bc
000002f0: e408 ebbc e23e 8ebd 98c8 d03c 88b0 833c
00000300: ac37 03bd 78d6 1fbd 3d6c 46bd c009 523d
00000310: a01d 64bb 760f 63bd 8017 573c 20b1 ff3c
00000320: 8c10 46bd 22f4 1ebd f095 b03c e0e0 6e3d
00000330: f75b 443d 64f1 0abd 3513 403d 6481 3cbd
00000340: 1edd 35bd 3c98 d73b e20d 89bd fea4 5b3a
00000350: f8ea 0c3c b4ca c13c 8a24 16bd 8077 80bc
00000360: d8a5 383c f8b6 49bd 799d 413d 7046 3a3c
00000370: 20d0 0f3c 881f 6e3c 70e4 ffbc 0a31 76bd
00000380: 47bf 8e3c bae8 333a 2e6e 5bbd 70db 9c3b
00000390: 00c8 95b9 8095 4a3d 0cc3 843c bd76 f53c
000003a0: ecfa 02bd 307a 8f3c b833 563c 58bd 64bd
000003b0: 4034 043c 204f 66bc c80b 0cbc 39f9 5bbd
000003c0: 8cff 603d 1a71 49bd 0c86 753d f649 b0bc
000003d0: 005a bd39 3a14 d93c 8322 c93c 98af c4bc
000003e0: 4c03 473d b8d7 51bc d820 6b3c 103a f23b
000003f0: 0000 ac38 c695 c8bb db36 9ebc fa83 7ebd
-0.036146797 0.0047055557 0.00021900477 0.054072756 0.019069739 -0.008826443 0.006591633 -0.0391038
-0.01950975 -0.03890946 -0.013408171 -0.033951506 0.06147924 -0.023662433 -0.008401118 -0.025710704
-0.040233437 0.0010645788 -0.028378103 0.01745823 0.036050834 0.0330607 -0.014562137 0.01789917
-0.002632623 0.009921403 -0.026071824 0.015174612 0.029712908 0.0432192 -0.018344617 0.012072265
0.029041618 -0.05933907 0.0069791526 -0.005848661 0.0036106184 0.05067104 -0.002824597 0.022670366
-0.009075767 0.054399557 0.041378126 -0.02356339 0.05456084 0.038089685 -0.059550636 -0.042888217
0.044581354 0.0048084855 0.053167738 0.0602829 0.023884982 -0.054483514 -0.022587469 0.032412548
0.023436645 -0.043201663 -0.0015073426 -0.029005006 -0.040009983 0.016552202 -0.039212883 0.025322393
-0.005043843 0.02857108 -0.028756969 -0.01633966 -0.049186423 -0.029414836 0.043449234 0.023943007
-0.050140776 0.043734446 0.030548021 -0.05402928 -0.034314804 -0.037593186 -0.06098461 0.001000775
-0.04874699 0.039461605 0.010474503 -0.008652538 -0.04402463 -0.000483945 0.02429767 -0.046939753
-0.060136825 -0.01381694 0.03035356 -0.043870974 -0.029462578 -0.00022777518 -0.063346505 0.059412703
-0.0006291941 0.044186585 0.009786434 0.019877093 0.03361804 0.0053351596 -0.044854805 -0.030396067
-0.04900541 0.06142752 -0.0034757257 0.0069937482 -0.034991108 -0.02727687 0.03375856 -0.043394897
0.0056125745 -0.036602497 -0.049348485 0.03434544 -0.053366363 0.05520483 -0.055732682 -0.006904833
-0.012231439 8.559227e-05 0.0003067851 0.022696214 0.046549052 -0.05791337 -0.013991872 0.028203875
0.0054630637 0.054014683 -0.047827218 -0.03762189 -0.030798746 -0.027054602 0.026906818 -0.04128991
-0.030971134 0.002324855 -0.009859724 0.037513115 -0.025162583 -0.021769665 -0.057917118 -0.054049224
-0.05958391 0.050175887 -0.039447166 0.045715563 -0.034609824 -0.013102695 -0.009089097 0.04537716
-0.03508001 -0.028927866 0.008054361 -0.00846815 -0.03431367 0.03332362 0.037551053 0.022401296
0.024664946 0.035398852 -0.011547897 -0.06782742 -0.00083141774 -0.026764102 0.049624264 -0.06212191
0.027582118 0.046024807 -0.02737403 0.005063586 0.0033822372 -0.06708261 -0.063406385 -0.018093705
0.03120371 -0.056574963 0.035431433 -0.021651596 -0.023689877 0.0344458 -0.027515613 -0.055463985
0.027294358 0.03974642 0.018730946 -0.014913671 -0.028690763 -0.06945588 0.025486276 0.016075388
-0.032035515 -0.039022893 -0.048443068 0.05127883 -0.0034807697 -0.055434667 0.013128161 0.03121239
-0.048355624 -0.038807042 0.02155587 0.058319926 0.047939267 -0.033921614 0.046893317 -0.046021834
-0.044400327 0.006579427 -0.06692101 0.0008378773 0.008600943 0.023656227 -0.03665594 -0.015681982
0.011270009 -0.04924676 0.04726932 0.011369333 0.008777648 0.014533885 -0.031236857 -0.06010536
0.017425193 0.0006862987 -0.053571872 0.004786901 -0.00028568506 0.04945898 0.016206287 0.029963845
-0.03197758 0.017514318 0.013073854 -0.055844635 0.008069098 -0.014056951 -0.008547731 -0.053704474
0.05493121 -0.049180128 0.05994229 -0.021519642 0.00036115944 0.026498903 0.02455259 -0.02400951
0.04858713 -0.012807779 0.014351092 0.0073921755 8.201599e-05 -0.00612137 -0.019313267 -0.06213758

model.2.bias f4 [256]
00000000: 81d1 a9bc 2e66 6fbd 4fdb 2e3e e29d c23d
00000010: 2b9d 66bd a670 62bd 38ab aabc 0816 9b3d
00000020: e83a fdbc 03b0 963d 90d5 52bd e8a3 8a3d
00000030: d712 e73c e419 ab3d 0c60 66bd 8a30 b33c
00000040: 9ae9 92bd cdce cebc f3f7 cb3d 4a26 4c3d
00000050: f80e 173d d329 c5bc e1eb d03c db60 bdbb
00000060: a687 d9bc cc07 8ebb 37d2 1d3e 1701 52bd
00000070: df81 d13c e291 6dbd 06a7 473d abbe ba3d
00000080: 273a ac3b 6e86 9e3d 7bd9 21bd dc70 1ebd
00000090: a6a9 d73d 24fd 1bbd 2d47 15bd 2342 853d
000000a0: 1f60 07bd b72e ca3d c2e8 45bd 3853 b83d
000000b0: f67f a43d 53a0 263d fe78 4cbb ed44 833c
000000c0: 7486 1abd 36f7 5fbd 743e a53d 4274 77bd
000000d0: 266d 0a3d 6764 673d 0c32 86bd 672b 59bc
000000e0: ab63 0dbd 7301 3f3d 85c0 45bc 2904 8fbd
000000f0: c98d 273d 5fda 8a3d db40 a73d a81f 1c3d
00000100: 4e9e 57bd 5c1e 28bd 6ab5 963d a3b9 cdbc
00000110: d7db a63d 9826 a4bc 1a67 8ebd ffa3 febc
00000120: 8622 333d ae1b d43d 8ad2 9cbc 6816 3abd
00000130: 4ad4 36bd 31c1 b3bb 8aef 6bbd 5a15 233d
00000140: 56a6 ebbc 3f54 12bd 9c6c 4c3e 69f0 a03d
00000150: 76ca 543a 027d c7bc f816 593d 9f4d e0bc
00000160: 4f1a 943c 9234 053d 25bf 25bd 1ad5 9e3d
00000170: 4e0d c33d 12e4 813c 7ce9 81bc 38f7 e3bc
00000180: 848c d93d e02f 57bb cc7a 1abd fcf3 80bd
00000190: 5cea 053d 80f0 73bd 7a43 24bd 90fb 113d
000001a0: 73c2 9f3d 6828 a63d 66e7 22bd da39 52bd
000001b0: b58e 933d 4392 de3d 6c45 c33d c665 c13d
000001c0: a7e0 813c 72c8 913d 9184 ebbc c67c 66bd
000001d0: 634b c33d 0458 793d 2d56 803c e2a9 03bc
000001e0: 2495 1cbd ff37 13bd f7c9 4cbc 1e87 983d
000001f0: 0353 833b def9 f83c 448a b33c e58a 143e
00000200: c687 ac3c 8531 873d 7f27 6d3d 17f5 97bc
00000210: ddd5 463c 0cfb ac3c 952c abbc fb43 11bc
00000220: a295 603d 7f80 87bd 88d7 5cbc 52e8 b33c
00000230: 2f06 82bc e8a8 9f3d b401 7f3d 6663 dc3d
00000240: 32e6 d0bc 00f9 d1bb 5e36 3dbd 167c 4cbd
00000250: db2a 4b3e 74d6 0ebd acdf 863d bd90 babc
00000260: 702a 923d b45c f1bc 9249 663c 5870 b2bc
00000270: 12ac 8d3d 3e1c ce3d 4022 cdbb c64d 893d
00000280: 3189 20bc faa0 93ba 4e71 60bd 4c7c 913d
00000290: 0fc1 593d 4ae3 8b3d 50a5 903d c442 013d
000002a0: a760 f4bc f8dd be3c a527 ac3d 0cc6 71bd
000002b0: 5eb0 5fbd 5b8d c63c c27d 49bd a1bb 14bd
000002c0: 5936 71bc 40ed db3b 2d66 573d ec04 c53d
000002d0: 3fba 733d 372c 74bd 7bb5 c0bc 8203 ef3d
000002e0: 9b49 303d a741 19bd 2b47 75bd 50ff fbbc
000002f0: afc3 6f3d 6b1d f6bc 7c4e 6cbd 5011 5abd
00000300: c209 0bbd db5c f93c f7f4 57bd c5ac 223e
00000310: a278 29bd 52b6 74bd fa79 773d d240 853b
00000320: 8ec1 6dbd 1d26 a13d 402f ec3a 17ef c5bc
00000330: 0a4f 32bd 6721 32ba 370e c73c 35f7 a53d
00000340: 164d 5fbd 2cbe 2f3d 8c7d 61bd d9de 8d3d
00000350: ae9f 51bd b388 943d 8bba 9b3d 7204 4dbd
00000360: a1e9 a23d a695 95bd 9094 7c3d a288 133d
00000370: 398e da3c db89 f23d c6f4 363d 9e2a 7a3c
00000380: e760 a13a 2958 0cbd 7007 5ebd f2b6 42bd
00000390: d60c d2bc 5ef6 5ebd e91e 90bc f4d2 f73b
000003a0: e945 333d 5b5a 3e3d af5b b3bb 8ace 7dbd
000003b0: 80ad 0bbd c33c b73d 2317 303d fa5f 09bd
000003c0: 5cfb 903b 30d5 293d 3f2c e9bc 8778 c03d
000003d0: 04fe fdbc df95 c93d 9a8c d63d bb64 703d
000003e0: fe35 b83d 2c63 dcbc 7646 863d 7a21 1dbd
000003f0: 8a44 123d 001c 0ebc 3226 1e3e f23a d53c
-0.020729782 -0.058447056 0.17075847 0.0950277 -0.05630223 -0.05528321 -0.020833597 0.075725615
-0.030911878 0.0735779 -0.0514732 0.06769544 0.028207226 0.083545476 -0.05624394 0.021873731
-0.07173462 -0.025245095 0.09959402 0.049841203 0.03687951 -0.024067795 0.0255031 -0.0057793683
-0.02655394 -0.0043344256 0.15412222 -0.05127057 0.025574623 -0.058000453 0.04874327 0.09118398
0.0052559557 0.07740484 -0.039514046 -0.03868185 0.10530405 -0.03808321 -0.03644483 0.06506755
-0.033050653 0.098721914 -0.04831768 0.09000248 0.08032219 0.04068024 -0.0031200047 0.016024077
-0.03772588 -0.054679118 0.080685526 -0.060413606 0.0337955 0.056492236 -0.065525144 -0.013254977
-0.03451888 0.04663224 -0.012069826 -0.06983215 0.0409067 0.06779932 0.08166667 0.038116127
-0.052641205 -0.041044578 0.07358821 -0.025112933 0.081474 -0.020037934 -0.06953259 -0.031084059
0.043734096 0.10356842 -0.019143362 -0.045431525 -0.04463605 -0.0054856767 -0.05760149 0.039815284
-0.028765839 -0.035724875 0.19963306 0.078583546 0.0008117327 -0.0243516 0.05300042 -0.027380763
0.018078951 0.032520838 -0.040465493 0.0775549 0.09524022 0.015855823 -0.015858404 -0.027827844
0.10622504 -0.0032834932 -0.037714764 -0.06296536 0.032694206 -0.05955553 -0.040103413 0.0356403
0.0780076 0.08113176 -0.03977146 -0.051324703 0.072049536 0.10867741 0.095347255 0.0944324
0.015854193 0.0711831 -0.028749736 -0.056271337 0.09535863 0.060874954 0.015666092 -0.008036109
-0.03822817 -0.035942074 -0.012499324 0.074476466 0.0040076985 0.030392583 0.021916516 0.14506109
0.021060836 0.06601242 0.057898995 -0.018549485 0.01213595 0.021115802 -0.020895282 -0.008866305
0.0548302 -0.066163056 -0.013479121 0.021961365 -0.01587209 0.07795888 0.062257484 0.10761146
-0.02550039 -0.006407857 -0.046194427 -0.049923025 0.19840567 -0.034872487 0.06585631 -0.022774095
0.071370006 -0.02946315 0.0140556265 -0.021782085 0.069175854 0.100639805 -0.0062601864 0.06704287
-0.009798334 -0.0011263185 -0.054795556 0.07103786 0.05316263 0.06830461 0.07062781 0.031557813
-0.029831244 0.023299202 0.08405999 -0.059026763 -0.054611556 0.024237325 -0.049192198 -0.03631175
-0.01472243 0.006711632 0.052587677 0.096200794 0.05950379 -0.05961248 -0.023524037 0.11670591
0.043038946 -0.037416127 -0.059882324 -0.03076139 0.058536228 -0.030043324 -0.057692036 -0.053239167
-0.033944853 0.030439785 -0.05272385 0.15886219 -0.04137481 -0.059744187 0.06041906 0.004066565
-0.058045916 0.07868598 0.0018019453 -0.024161858 -0.04353241 -0.00067951385 0.02429877 0.081037916
-0.054516874 0.04290597 -0.05505137 0.069272704 -0.051177673 0.07252636 0.076039396 -0.050053068
0.079547174 -0.07303934 0.061665118 0.036018975 0.026679145 0.118427 0.044667028 0.01526895
0.0012312204 -0.034263764 -0.05420631 -0.04753775 -0.025640886 -0.054434173 -0.017592864 0.0075629894
0.043767843 0.04647289 -0.005473576 -0.06196455 -0.03410101 0.08947136 0.042990815 -0.033538796
0.0044244956 0.041463077 -0.028463481 0.09397989 -0.031004913 0.09843039 0.10476036 0.058689814
0.08994673 -0.026902758 0.06556408 -0.038362004 0.035709895 -0.008673668 0.15444258 0.026029084

model.4.weight f4 [9, 256]
00000000: cb30 2dbd 6229 03bc bcd9 703e b458 59ba
00000010: e8d5 073c 0457 063e f886 3c3c cd04 ef3e
00000020: 002c 78bb 8b08 5cbf aa3d 393d 4615 b73d
00000030: ffc5 d2be 4652 7f3e 909d b23b fd6c eabd
00000040: b7e2 683d 6b7b 8f3b 79c7 a4be 270a 713e
00000050: 7d5f a2be 5f1f 273b 540c e8be 913f 773c
00000060: 2cd6 623e c9ae 843d e974 9b3e e088 293d
00000070: 5842 76be d19f f3bc 0b71 20bf 6e2f e7be
00000080: 2eb8 6a3e f52d 493d d17a 01bd b5aa 7d3c
00000090: 9f9c d73e f24c 653d 3a95 253d c737 a8be
000000a0: 362e 8b3c b996 733e c980 1dbd 9965 023e
000000b0: 7305 babe cd9e ccbd de52 9f3e 3628 353e
000000c0: 40fa a7bb 3bfc 323b e7b0 a1be 0e00 61bd
000000d0: b8dc 06be edbc 973e adea e1b9 6041 ad3d
000000e0: d35d b73c 65eb 833e babd ea3d ded2 f73c
000000f0: be23 58be 160a 7bbe 722f acbe af34 553e
00000100: bb96 1abd 6ad3 0fbd 90ab 783e 7b7a 1c3d
00000110: 2bbf a3be a0c2 60bc bda7 a5bc 4c02 6ebd
00000120: 3fca f2bc 9d2a 3a3d 4b99 81bc c06e 5e3d
00000130: 107f ec3c 07ed 69bc c0ad 1fbb b4ba b0be
00000140: 12d4 dbbc dc51 313d 65db 843f 1861 00bf
00000150: fdcd e93b 090d 8d3c 56d6 1a3e 3315 833c
00000160: 3bf3 693e 4b30 843e 7f07 6dbd 2ddf e6be
00000170: 03b5 e53d 27ea 14be 0d6b 0e3d 90e2 593c
00000180: 4f84 21be 520d 71bd cc98 183d 6aa7 3b3c
00000190: 34d2 29bf e4b6 a9bc 9805 473c 963a 4bbd
000001a0: 506b b9be d8f3 1abe 8751 a63b 0226 013d
000001b0: b329 dabe b1fd 89be 25b5 a0bd 74fc 953e
000001c0: e5bc 0c3d 4697 6f3e 7c43 ba3d 4e40 053d
000001d0: 9c54 82be d674 99be 595c 093e 6d24 413e
000001e0: 6e02 683d 8833 ab3d 762e 4bbd 905e c6be
000001f0: 5eb0 463d a45b d13e a4f6 783e a9db ea3d
00000200: 5beb 3abd 2ca9 afbe 6014 1e3b fc79 013c
00000210: 057a 22bb cd78 643e d529 683c 2608 c43b
00000220: 5ec9 4dbe 6091 213d 883d d1bc eec8 153d
00000230: 69c4 acbd 1a0f 1d3e bb5a 96be 5e80 5d3e
00000240: b454 bfbc fea7 913c 0015 af3b 7e5d 6ebd
00000250: 0374 c13d a73d a23c 0f06 98be c042 38bd
00000260: 78a6 6ebe 9e40 043d b86c c03e 0129 04bf
00000270: 9515 6fbe a0f5 093d a826 c1bc 3f2c 873e
00000280: e1db 35bd bd10 3b3d be63 31bd 1dcd 683e
00000290: 99b2 723e 1c5f 83be 859b 6fbe d33d 383d
000002a0: 02b2 5bbd f96f 27bf 3e71 f8be a012 73bc
000002b0: 38eb 3cbd e696 3a3e 4e37 0a3d d346 23bd
000002c0: 9390 493d bdc2 eabd d32a 8dbd e9f3 86be
000002d0: ba5b 27be 3f27 0f3d f471 773e 80c8 d5be
000002e0: ae3e 8d3e f6a7 683c 3355 593c 0afc ef3c
000002f0: 2e5f 4d3e f407 67bc 89be b63c fcb3 ebbc
00000300: 9868 fcbc 9f86 ac3d 602b 3cbc effe 27bf
00000310: 1eb3 473d 06d9 843d 178a 04bf ca4c b53c
00000320: 037b 243d 87ba 30be be12 3cbd e62e b6bd
00000330: f6d4 2cbd 1466 473e f6ee 08bf a5e8 b6be
00000340: 6cba f9bc 4402 453e 12d5 cdbc b87a c53e
00000350: d0b7 eb3b f52e 213e ed9c 98be e468 f0bc
00000360: ee87 f3bd 9d61 08bc 52ed 983e 253b 8d3e
00000370: f0ab f93d 3b6b 33bf b054 b3be 1f8e 35bf
00000380: 6385 753e 8b72 b6bc ccc1 ccbc 5c94 d43c
00000390: 464f 9e3c 2824 77bd 3b7c 14bd 6531 ad3c
000003a0: 1ebd 193e 43e0 2d3e ef09 f2bd 2a9a 2abd
000003b0: c1b3 d8bb 175c 533d 1082 873e 1e70 473d
000003c0: 6f2a 413e 7b79 c73d 4b18 103d 6981 34bf
000003d0: 303f 533c d1d1 73be 33b0 763e 1b44 103e
000003e0: 3d4a 1e3c c33c df3c d5e4 8abd deef 7cbd
000003f0: 656f 623e 8a47 743d 1661 853e 80f4 f4ba
-0.04228286 -0.008005472 0.23520559 -0.0008291111 0.008290745 0.13119131 0.011506788 0.4668335
-0.0037868023 -0.85950536 0.045224823 0.089396045 -0.41166684 0.24933729 0.005450912 -0.11446569
0.056856837 0.0043787262 -0.32183436 0.23539029 -0.31713477 0.0025500876 -0.45321906 0.015090839
0.22152013 0.0647865 0.30362633 0.0413903 -0.24048746 -0.029739292 -0.6267249 -0.45153373
0.22921821 0.049116094 -0.031611267 0.015482594 0.4211168 0.055981584 0.040425517 -0.32855055
0.016989809 0.23787965 -0.038452897 0.12734069 -0.36332282 -0.09991226 0.3111791 0.1769112
-0.0051262677 0.0027310986 -0.31580278 -0.054931693 -0.13170135 0.29636326 -0.0004309019 0.08459735
0.022383606 0.2576553 0.11461969 0.030251916 -0.21107385 -0.24515566 -0.33629948 0.20820878
-0.037741404 -0.03511373 0.24284196 0.038202744 -0.31981787 -0.013718277 -0.020221585 -0.05810766
-0.029637454 0.045450795 -0.015820166 0.05430484 0.028869182 -0.014277703 -0.0024365038 -0.34517443
-0.026834521 0.043290958 1.0379454 -0.50148153 0.0071351514 0.01721813 0.15120825 0.01600132
0.22846691 0.25818095 -0.057868477 -0.45092145 0.11216166 -0.14542447 0.03477006 0.013298646
-0.15773128 -0.058850594 0.037255093 0.011453489 -0.6633637 -0.020717092 0.01214733 -0.04961642
-0.36214685 -0.15132082 0.005075637 0.031530388 -0.4260994 -0.26951364 -0.078470506 0.2929417
0.03435983 0.2339755 0.09094903 0.03253203 -0.25455177 -0.2997195 0.13414134 0.18861552
0.056642942 0.08359438 -0.049604855 -0.3874402 0.04850804 0.4089023 0.24312836 0.11467678
-0.04563461 -0.34308755 0.0024121031 0.0079026185 -0.0024791968 0.22311707 0.01417013 0.0059824167
-0.20096347 0.03944528 -0.025542036 0.036568575 -0.084359 0.15337792 -0.29366097 0.21631
-0.02335582 0.0177803 0.0053430796 -0.05819463 0.094459556 0.019804789 -0.29692122 -0.044985533
-0.2330569 0.032288186 0.37582946 -0.51625067 -0.23348077 0.033681512 -0.023578003 0.26400945
-0.044399146 0.04567026 -0.043308012 0.22734495 0.23700942 -0.256585 -0.2339917 0.044980835
-0.05363656 -0.6540523 -0.48523897 -0.0148359835 -0.04612276 0.18221626 0.03374415 -0.039862465
0.049210142 -0.11462925 -0.06892934 -0.26357964 -0.16343585 0.034949537 0.24164563 -0.41754532
0.27586883 0.014200201 0.013264942 0.029294986 0.2005584 -0.014101017 0.022307651 -0.028772347
-0.030811593 0.084241144 -0.011484951 -0.6562337 0.048754804 0.064867064 -0.5177321 0.022131342
0.040156376 -0.17258655 -0.04591631 -0.08895664 -0.042195283 0.19472533 -0.53489625 -0.3572437
-0.0304844 0.19239146 -0.025126014 0.3857019 0.007193543 0.15740569 -0.29807225 -0.02934689
-0.11891161 -0.008324054 0.2986856 0.27584186 0.121909976 -0.70085496 -0.3502555 -0.70919985
0.23976664 -0.022271415 -0.024994753 0.02594965 0.01932491 -0.060337216 -0.036251288 0.021141717
0.15013549 0.1698008 -0.11818301 -0.04165093 -0.006613225 0.051601496 0.26466417 0.048690908
0.18863843 0.097399674 0.035179418 -0.70509964 0.012893483 -0.23810507 0.24090652 0.1408848
0.0096612545 0.027250653 -0.067819275 -0.061752193 0.22112806 0.059638537 0.26050633 -0.0018688589

model.4.bias f4 [9]
00000000: 9c98 183d e384 1e3d d6eb 7b3d 83a0 f8bd
00000010: 789e 94bc 27a9 0bbc bdc8 893d 3acb 9a3d
00000020: 081d da3d
0.037254915 0.03870095 0.061504208 -0.1213999 -0.01814197 -0.008524216 0.06727741 0.07558294
0.106500685
