scripts/trained_classifiers/nn_dinov2_weighted_gray.pth (torch, 669544 bytes, 6 tensors)

model.0.weight f4 [256, 384]
0.04624866 -0.028736811 0.009264894 -0.020758552 -0.013146799 0.050197765 0.04619617 0.050335072
0.021965727 0.018836223 -0.04262135 0.02492351 0.030331299 -0.01042952 0.046429038 -0.04240778
-0.05044377 -0.0015165433 0.006120026 -0.024687748 -0.00941259 0.042593554 0.04549966 -0.043543834
-0.025681661 0.026062898 0.0369213 0.0015859306 0.04592099 -0.01024016 -0.018237013 0.017432578
-0.016782384 0.029208288 -0.0038513467 0.010192741 0.04686165 0.044733882 -0.0073621906 -0.030216344
0.033287987 0.0053625666 -0.031277265 -0.05007493 0.022450566 -0.04312896 0.025219925 0.030026928
0.03298629 0.018597208 -0.001140181 -0.016005527 -0.006583739 -0.0059416294 -0.046000917 0.043332115
-0.047424912 0.01851862 -3.5725534e-06 -0.04783948 -0.011552718 -0.02046439 -0.038845852 0.033606082
0.0329289 -0.035189822 0.020641677 -0.03606216 -0.046365052 0.03003712 0.014396526 -0.045404434
-0.023939067 -0.0058800615 -0.038474042 -0.026618855 0.03581039 -0.010953218 -0.036944542 -0.03026742
0.032903448 -0.010171652 0.022081308 0.049952865 -0.047002487 -0.003295429 0.046399206 -0.007939734
-0.0366907 -0.0033086576 -0.024861995 0.007932879 -0.009373359 -0.046360377 0.003790658 -0.024019355
0.031235129 -0.028988054 0.019033305 0.017184615 0.0067389123 0.00085479766 -0.028318962 0.0372115
0.04254093 0.04808163 0.030159496 -0.0050702356 -0.03305457 0.03322941 0.038210705 -0.04532483
-0.024301296 -0.038368933 -0.009181339 0.024431907 0.000854481 -0.040793907 0.036326043 0.004947845
-0.036302716 -0.043623373 0.041433856 -0.018798038 -0.04865846 -0.03390263 -0.044513907 -0.012293581
-0.040945705 0.0042226166 0.007397145 -0.0409453 -0.03667622 0.006171912 0.044240914 -0.0477626
-0.005038932 0.016240723 -0.032737188 -0.023630768 0.046113737 -0.028556773 -0.045051284 0.017802358
0.025577828 0.009002127 -0.04147481 0.025102712 0.014851801 0.012823179 0.04897508 0.0072486363
0.04711207 0.034262776 -0.049013164 0.020384386 0.008505072 0.01952029 -0.02651133 -0.009085581
-0.040771987 0.018104948 -0.044185642 -0.018097483 0.035776623 0.028121889 -0.0050888695 0.008524425
0.00025399402 -0.04594027 0.033855587 0.010027181 0.037278682 -0.047686357 -0.017588109 0.01954963
-0.018365044 -0.020026162 0.03612362 -0.023312693 -0.008610394 0.010740049 0.02128017 -0.011996482
0.033555225 0.0071204975 -0.034184527 0.01984065 0.035663776 0.04681281 -0.031039843 0.049911633
-0.012089822 -0.040333133 -0.011101883 0.010049447 -0.014585413 0.002702307 -0.03013418 0.009556621
0.020960383 -0.042935684 -0.04557383 0.030401394 0.004451126 0.03930258 -0.03535885 0.015850477
-0.03118765 0.039472982 -0.024455607 -0.044898193 0.014836997 -0.041433714 0.034510717 -0.020802194
0.039136827 -0.047334958 0.030919597 0.010569941 0.0013440624 0.035029463 0.00059343874 0.032846183
-0.021839634 -0.0068125576 -0.009482861 -0.02804144 -0.049279038 0.03816586 -0.018432483 0.021399997
0.042359807 0.033357665 0.024351723 0.02715227 -0.04150145 -0.04441665 -0.041104287 -0.047602832
-0.023372905 0.005481556 0.03624729 -0.021944243 -0.029509613 0.003420461 0.030463398 -0.0227721
-0.0028788298 -0.018896785 0.038988918 0.011691876 -0.0032836534 0.009596083 0.04592272 -0.02244243
00000000: 3c6f 3d3d 7669 ebbc c8cb 173c d70d aabc
00000010: ac65 57bc 2c9c 4d3d 3238 3d3d 262c 4e3d
00000020: 78f1 b33c 6c4e 9a3c ba93 2ebd 642c cc3c
00000030: 5879 f83c 94e0 2abc 602c 3e3d c8b3 2dbd
00000040: 209e 4ebd c0c6 c6ba 808a c83b f63d cabc
00000050: 4437 1abc 9476 2e3d da5d 3a3d 055b 32bd
00000060: 5962 d2bc dc81 d53c ca3a 173d 00df cf3a
00000070: a617 3c3d 58c6 27bc ca65 95bc c4ce 8e3c
00000080: 367b 89bc 3846 ef3c e066 7cbb 74ff 263c
00000090: 00f2 3f3d e03a 373d 883e f1bb 4488 f7bc
000000a0: fc58 083d 78b8 af3b 971c 00bd 5f1b 4dbd
000000b0: 40ea b73c fea7 30bd 049a ce3c 08fb f53c
000000c0: a21c 073d 2c59 983c 2072 95ba 061e 83bc
000000d0: 68bc d7bb 00b2 c2bb 756b 3cbd 047d 313d
000000e0: a040 42bd 5cb4 973c 00c0 6fb6 55f3 43bd
000000f0: 9c47 3dbc f0a4 a7bc d41c 1fbd 88a6 093d
00000100: 74e0 063d 3423 10bd bc18 a93c eab5 13bd
00000110: 48e9 3dbd 6810 f63c 68df 6b3c 00fa 39bd
00000120: dd1b c4bc 88ad c0bb f596 1dbd c90f dabc
00000130: eaad 123d 2075 33bc 2953 17bd 61f3 f7bc
00000140: c4c5 063d 00a7 26bc dce3 b43c 609b 4c3d
00000150: ae85 40bd 20f8 57bb 180d 3e3d a815 02bc
00000160: fd48 16bd 10d6 58bb 62ab cbbc e8f8 013c
00000170: b892 19bc 61e4 3dbd b06c 783b 3dc4 c4bc
00000180: d0e0 ff3c 5b78 edbc bceb 9b3c c0c6 8c3c
00000190: 18d2 dc3b 8014 603a 2bfd e7bc 166b 183d
000001a0: 663f 2e3d 3ef1 443d 0c11 f73c 3824 a6bb
000001b0: 3b64 07bd 901b 083d d482 1c3d 87a6 39bd
000001c0: 8313 c7bc be28 1dbd 546d 16bc 6c25 c83c
000001d0: 40ff 5f3a 8317 27bd 9eca 143d 8821 a23b
000001e0: 28b2 14bd 6cae 32bd 8cb6 293d 58fe 99bc
000001f0: 184e 47bd 7cdd 0abd 3754 36bd 046b 49bc
00000200: afb6 27bd e05d 8a3b c063 f23b 42b6 27bd
00000210: ce39 16bd c03d ca3b f635 353d b7a2 43bd
00000220: a01d a5bb 440b 853c 6e17 06bd 5095 c1bc
00000230: c2e1 3c3d e5ef e9bc b287 38bd 40d6 913c
00000240: 9888 d13c a87d 133c 7ee1 29bd 34a4 cd3c
00000250: f854 733c 5018 523c 189a 483d f885 ed3b
00000260: 96f8 403d 2057 0c3d 07c2 48bd 28fd a63c
00000270: dc58 0b3c 04e9 9f3c 4a2e d9bc b0db 14bc
00000280: 8700 27bd d450 943c 01fc 34bd 2c41 94bc
00000290: 828a 123d e05f e63c 88c0 a6bb 08aa 0b3c
000002a0: 802a 8539 dd2b 3cbd 28ac 0a3d 0c49 243c
000002b0: 88b1 183d c552 43bd f014 90bc 8c26 a03c
000002c0: 4a72 96bc e80d a4bc 5cf6 133d 43fa bebc
000002d0: 9c12 0dbc 08f7 2f3c c053 ae3c e48c 44bc
000002e0: 3471 093d 1053 e93b 1305 0cbd dc88 a23c
000002f0: 2e14 123d cabe 3f3d 4547 febc 2470 4c3d
00000300: 6414 46bc 5b34 25bd ace4 35bc 70a6 243c
00000310: a8f7 6ebc 3019 313b f5db f6bc 6093 1c3c
00000320: 1cb5 ab3c 54dd 2fbd a0ab 3abd 580c f93c
00000330: c0da 913b befb 203d 71d4 10bd dcd8 813c
00000340: 3e7d ffbc 6cae 213d 2057 c8bc 2be7 37bd
00000350: e016 733c 66b6 29bd 1c5b 0d3d 5d69 aabc
00000360: f04d 203d 4de2 41bd 184b fd3c 8c2d 2d3c
00000370: 402b b03a 0e7b 0f3d 0091 1b3a b889 063d
00000380: 08e9 b2bc e03b dfbb 005e 1bbc 29b7 e5bc
00000390: d1d8 49bd ce53 1c3d b8ff 96bc 0c4f af3c
000003a0: 7a81 2d3d 0ca2 083d 447d c73c 706e de3c
000003b0: 6dfd 29bd 3cee 35bd f85c 28bd 30fb 42bd
000003c0: 8978 bfbc a09e b33b 0a78 143d 6ac4 b3bc
000003d0: 25be f1bc d029 603b 608e f93c 8e8c babc
000003e0: c0aa 3cbb 6ecd 9abc d8b2 1f3d 488f 3f3c
000003f0: 9032 57bb e438 1d3c 7619 3c3d 30d9 b7bc

model.0.bias f4 [256]
-0.016089417 -0.019905815 0.04012638 0.0404005 0.024977928 -0.007816536 -0.029013174 0.05950005
-0.01969679 -0.025733687 -0.023002155 0.017006205 -0.020708255 0.038323686 0.051194698 0.03726636
0.03995737 -0.014291575 -0.019747112 0.04714882 -0.05019167 0.03605219 0.031034341 -0.03452957
-0.013225947 0.0073227263 0.031314183 -0.009465152 0.046628743 -0.047407277 -0.03156512 0.05201383
0.03982153 0.057018872 0.058354452 0.06573831 -0.017820053 0.049728274 -0.03751435 0.031267546
-0.04177597 0.05406024 0.037101857 -0.034853406 0.03886131 0.017663453 -0.029485328 -0.033496097
-0.029555293 0.039648246 -0.033630222 -0.023991343 -0.026545575 -0.02333474 -0.033568077 0.03680923
-0.028642513 -0.035168156 -0.031611145 -0.017729118 -0.036146134 -0.032239582 -0.046338763 0.04780273
0.08004781 0.03831492 0.042915042 0.038642444 0.08103523 0.056778662 0.06837698 0.018417947
-0.031904534 -0.022100994 0.03178793 -0.027654165 0.03887495 0.033729203 -0.014968067 0.03633019
0.053027917 0.04027717 -0.027226936 -0.033440575 -0.013437528 0.04312444 0.0425383 -0.024099035
0.05929028 0.021598155 0.033178866 -0.027320286 0.050207734 -0.02905633 0.04783255 0.03013631
0.044107385 -0.04820292 0.072051965 -0.047423743 -0.02852289 0.043987 -0.046222996 0.042490672
-0.019716408 -0.026208378 -0.010095853 -0.040172704 -0.0137009695 0.03793657 0.04291195 0.052069362
0.042243432 0.031221215 0.040324904 -0.017072964 0.037860673 0.03349271 -0.009819265 0.011090304
-0.021888483 0.06412738 0.046756703 0.051025644 0.050724845 -0.02632625 0.040716644 -0.047259096
-0.039916433 -0.03843022 0.03595534 0.041660868 -0.021691572 0.083781056 0.04993481 0.043463558
0.034253668 -0.0333107 -0.029501662 0.037760656 0.08074982 0.04002256 -0.04041043 0.042265166
0.035477404 -0.01763716 0.033383522 0.06191833 -0.0153158195 0.042325515 0.05019962 -0.024040928
-0.042730756 0.047288686 0.054101203 0.039855458 -0.04953234 -0.00910358 -0.013554058 0.068742685
-0.033097867 0.08314681 0.037296228 0.05066981 -0.019391984 0.031918835 -0.026587378 0.03938819
-0.02400669 0.040763956 0.035056286 0.029014114 0.06030371 -0.021032091 -0.033433065 0.031815425
0.033469845 0.019773738 0.025292492 -0.009820335 -0.0151573755 -0.020903762 -0.0405521 -0.020975795
0.046871897 0.06799486 0.016592113 -0.04980724 0.037351947 -0.04142447 0.0721503 0.031946626
0.052956276 0.033619482 0.04021792 -0.047694054 0.074539274 -0.016687937 0.047305387 -0.020323742
0.025379 0.02606141 0.044028345 0.052920304 0.05309358 0.03725409 -0.047403827 -0.049909428
-0.0135491565 0.042532995 -0.049040522 -0.04898261 -0.015764635 -0.010327183 -0.05038702 0.031091318
-0.046008263 -0.047546264 -0.030659024 0.028524676 0.08808494 -0.024873566 -0.02189582 -0.04982347
-0.010145199 0.049143016 -0.010379841 -0.04979245 0.046809554 0.06506989 -0.0328381 0.061612923
-0.033905227 0.039543007 -0.029024117 0.09456267 -0.02520846 0.042904492 0.044112187 -0.04059518
-0.021952232 0.06651812 0.08159331 0.083858825 -0.04957971 0.044389673 0.046246152 0.04131554
0.04918356 0.051972095 -0.042409755 -0.030445071 0.041994065 -0.026158186 0.040519174 -0.035609066
00000000: f4cd 83bc 8511 a3bc 8f5b 243d ff7a 253d
00000010: 839e cc3c ee10 00bc 09ad edbc 53b6 733d
00000020: 2a5b a1bc 74cf d2bc 046f bcbc 9950 8b3c
00000030: 5ca4 a9bc 4cf9 1c3d 88b1 513d 9ca4 183d
00000040: 57aa 233d 3627 6abc b2c4 a1bc 1f1f 413d
00000050: c895 4dbd 76ab 133d bb3b fe3c e16e 0dbd
00000060: a4b1 58bc 7bf3 ef3b 4d43 003d ba13 1bbc
00000070: c8fd 3e3d 222e 42bd 6d4a 01bd 740c 553d
00000080: e71b 233d 9f8c 693d 1405 6f3d cfa1 863d
00000090: 5cfb 91bc e0af 4b3d a6a8 19bd 6612 003d
000000a0: 481d 2bbd 456e 5d3d 1ef8 173d 72c2 0ebd
000000b0: 092d 1f3d f2b2 903c 378b f1bc 3433 09bd
000000c0: f11d f2bc 3366 223d d8bf 09bd 7e89 c4bc
000000d0: 1b76 d9bc 7f28 bfbc ae7e 09bd 46c5 163d
000000e0: b4a3 eabc 7c0c 10bd b07a 01bd a83c 91bc
000000f0: f80d 14bd a70d 04bd b7cd 3dbd cccc 433d
00000100: 1bf0 a33d 1bf0 1c3d afc7 2f3d 8a47 1e3d
00000110: ccf5 a53d be90 683d 3b09 8c3d 3ce1 963c
00000120: 54ae 02bd 250d b5bc 0f34 023d fd8a e2bc
00000130: 573b 1f3d a227 0a3d a03c 75bc f7ce 143d
00000140: cd33 593d acf9 243d 060b dfbc fcf8 08bd
00000150: 1429 5cbc 41a3 303d a43c 2e3d 576b c5bc
00000160: 5dda 723d 9dee b03c 90e6 073d cbce dfbc
00000170: a0a6 4d3d 8a07 eebc 10ec 433d 6ce0 f63c
00000180: f2a9 343d 6d70 45bd fb8f 933d 663f 42bd
00000190: d6a8 e9bc b62b 343d 5354 3dbd b30a 2e3d
000001a0: 4e84 a1bc f4b2 d6bc 1469 25bc 228c 24bd
000001b0: 087a 60bc 6063 1b3d 71c4 2f3d af46 553d
000001c0: 7307 2d3d a2c3 ff3c ba2b 253d 9adc 8bbc
000001d0: cb13 1b3d a72f 093d fce0 20bc 1bb4 353c
000001e0: 7a4f b3bc 3755 833d f583 3f3d 4400 513d
000001f0: dbc4 4f3d 26aa d7bc 7fc6 263d c192 41bd
00000200: 6a7f 23bd 0269 1dbd e845 133d 96a4 2a3d
00000210: 86b2 b1bc 6795 ab3d 7188 4c3d d806 323d
00000220: 934d 0c3d cd70 08bd 78ad f1bc ebaa 1a3d
00000230: 2960 a53d b2ee 233d 6885 25bd 3d1e 2d3d
00000240: c150 113d ce7b 90bc 29bd 083d 139e 7d3d
00000250: 34ef 7abc 855d 2d3d 1e9e 4d3d 7bf1 c4bc
00000260: 7206 2fbd c8b1 413d 3999 5d3d 7a3f 233d
00000270: 6ce2 4abd 2f27 15bc d711 5ebc f7c8 8c3d
00000280: a191 07bd e048 aa3d eec3 183d 268b 4f3d
00000290: f0db 9ebc 53bd 023d c6cd d9bc 8355 213d
000002a0: aea9 c4bc 1bf8 263d 2e97 0f3d 02af ed3c
000002b0: 0601 773d 7e4b acbc 1cf1 08bd e450 023d
000002c0: ad17 093d 89fc a13c 3332 cf3c 78e5 20bc
000002d0: a456 78bc 5e3e abbc f519 26bd 6ed5 abbc
000002e0: bffc 3f3d e440 8b3d 2fec 873c ad02 4cbd
000002f0: 5bfe 183d b4ac 29bd 89c3 933d 77da 023d
00000300: aee8 583d 95b4 093d 8cbb 243d d75a 43bd
00000310: 0ca8 983d 24b5 88bc 4bc3 413d fa7d a6bc
00000320: 9fe7 cf3c bd7e d53c 1157 343d f6c2 583d
00000330: a778 593d bf97 183d 842a 42bd d46d 4cbd
00000340: 48fd 5dbc 1437 2e3d b7de 48bd fda1 48bd
00000350: d624 81bc 5833 29bc 9f62 4ebd 38b3 fe3c
00000360: 2973 3cbd dfbf 42bd a228 fbbc 95ac e93c
00000370: e165 b43d a6c3 cbbc dd5e b3bc b213 4cbd
00000380: 0c38 26bc 304a 493d 3510 2abc 2bf3 4bbd
00000390: 60bb 3f3d 5d43 853d 3e81 06bd d55d 7c3d
000003a0: 35e0 0abd d9f7 213d fcc3 edbc 13aa c13d
000003b0: f981 cebc 9fbc 2f3d fbae 343d 2247 26bd
000003c0: 2bd5 b3bc a73a 883d 651a a73d 2dbe ab3d
000003d0: 1814 4bbd f2d1 353d 9b6c 3d3d 7c3a 293d
000003e0: b374 493d b1e0 543d dab5 2dbd f167 f9bc
000003f0: f801 2c3d b149 d6bc 6ff7 253d d0da 11bd

model.2.weight f4 [256, 256]
0.022913337 0.03650798 -0.05418262 0.010163394 -0.012640944 0.030503586 -0.010805517 0.0075242454
0.035405166 -0.026667066 -0.036056966 0.051640335 0.054527223 -0.06932738 -0.045519587 0.017617028
0.04662948 0.05360648 0.03360997 -0.035001647 0.032308698 -0.02291136 -0.059603523 -0.030177504
0.0057572797 0.024266837 0.042625915 -0.045796134 -0.047488075 0.032042906 -0.019990183 0.0013206454
-0.0029554218 0.0027449385 0.030147027 -0.0026790071 0.03565631 0.007979317 0.0180531 -0.039648037
0.010234721 -0.02141187 -0.00706976 0.058354065 -0.005034549 -0.02706627 -0.04284571 0.023717582
0.010244504 -0.029866787 0.06111802 0.010162041 0.017212316 -0.025655031 -0.003472805 0.02690646
-0.058273114 0.04101392 -0.022295259 -0.009479895 -0.014691569 0.00615038 0.033529438 0.01727949
-0.029462941 -0.04545138 0.042625636 0.047785148 -0.03846542 0.0044433824 -0.025807671 0.06115858
0.009107463 0.040717065 0.028901396 0.0065749288 -0.022564212 -0.0039083227 0.04683271 0.03696224
0.0030506216 0.0010515794 0.026585862 0.0152539015 0.026112452 -0.035383545 0.019893222 0.030762777
-0.010893477 -0.048452277 -0.002317201 -0.01815667 -0.0066327965 0.02939266 -0.026122468 0.012456287
-0.05685648 -0.010293901 0.042318486 -0.004855737 0.052607894 -0.010987787 -0.012864888 0.0074177994
-0.03556837 -0.046472147 0.021204315 -0.037281193 -0.003019765 -0.059022777 -0.027319307 -0.0034792363
0.036391817 -0.055057634 0.03278113 -0.023794144 -0.036724877 -0.06329479 -0.024240278 -0.027247358
0.008303538 0.0475263 0.0045111626 -0.050101135 0.03489542 -0.033442147 0.06012349 -0.0019862503
0.034609795 0.061692588 -0.02816643 -0.06048029 -0.03686109 0.04999791 0.02508065 -0.004874545
0.048140816 -0.020237632 0.013862036 -0.023380015 0.023197195 -0.045067575 -0.003631428 0.03972075
-0.0440306 0.06136927 -0.02653446 0.040179938 0.024119824 0.009813546 -0.0054469123 -0.033186443
0.0012493506 -0.044358417 0.0416759 0.019112753 -0.039281428 0.0013084263 0.012301192 -0.014535206
0.04190273 -0.02242445 0.010637171 0.03185416 -0.010336049 0.04246451 0.0025867894 -0.03288924
-0.038320653 0.04965173 0.0065165795 -0.012528326 0.026751839 0.010849185 0.0059863254 0.009178963
0.040260717 0.035215154 -0.0010426843 -0.00012622774 0.058528088 -0.061307088 0.036838293 0.024443671
0.0015542326 0.05217144 0.041611753 -0.015010446 0.012627483 -0.0060446933 -0.05517769 0.0026282903
0.051620103 -0.03634688 -0.022980727 0.0010654107 0.043100424 -0.0029201433 -0.014473343 0.057286836
-0.04676489 0.018811876 -0.022577245 -0.015823461 -0.045758907 0.0035616362 0.019903183 0.009186186
-0.0020250008 -0.0369757 -0.02975455 0.0339308 -0.051393032 0.033534363 0.008983262 -0.0100368345
0.044441946 -0.05196108 0.056463294 -0.038268704 -0.059674058 -0.0010623559 0.0045575425 -0.035356916
0.012913153 -0.04081822 -0.045160368 -0.0073549524 0.009348346 0.028973864 0.047614396 0.027320318
0.058346324 0.04244892 0.048846163 -0.0008408573 0.039256155 0.04470255 0.012254332 -0.051631443
0.0002751872 -0.035283215 0.045975048 -0.056503225 0.032669254 -0.029096251 0.019103756 -0.018059198
0.05005399 -0.0002700611 0.0016731396 0.061120436 -0.0019871155 0.037425317 0.043274693 -0.054757617
00000000: c0b4 bb3c 6489 153d 98ee 5dbd 5d84 263c
00000010: f61b 4fbc a8e2 f93c a009 31bc f28d f63b
00000020: 0205 113d e474 dabc 78b0 13bd d184 533d
00000030: f057 5f3d 83fb 8dbd bf72 3abd 9651 903c
00000040: 8efe 3e3d 7892 5b3d 9caa 093d e35d 0fbd
00000050: 2056 043d 9bb0 bbbc d322 74bd d036 f7bc
00000060: 90a7 bc3b 3fcb c63c 8398 2e3d ba94 3bbd
00000070: db82 42bd 6c3f 033d 74c2 a3bc 8219 ad3a
00000080: c0af 41bb 6de4 333b e6f6 f63c 4892 2fbb
00000090: 5a0c 123d aebb 023c 18e4 933c fb65 22bd
000000a0: 88af 273c f267 afbc 72a9 e7bb ac04 6f3d
000000b0: dcf8 a4bb 15ba ddbc fc7e 2fbd 604b c23c
000000c0: 90d8 273c 31ab f4bc e456 7a3d b07e 263c
000000d0: d800 8d3c 802a d2bc 0098 63bb f06a dc3c
000000e0: caaf 6ebd 36fe 273d 8ca4 b6bc 9051 1bbc
000000f0: e8b4 70bc 2089 c93b 2a56 093d b88d 8d3c
00000100: 445c f1bc 3a2b 3abd 3898 2e3d 5cba 433d
00000110: eb8d 1dbd cb99 913b 9c6a d3bc 6b81 7a3d
00000120: 7837 153c f0c6 263d 9fc2 ec3c 8072 d73b
00000130: 95d8 b8bc 6311 80bb a8d3 3f3d b865 173d
00000140: f0ec 473b 26d5 893a 98ca d93c 80eb 793c
00000150: c8e9 d53c 56ee 10bd 1cf7 a23c 3802 fc3c
00000160: 8e7a 32bc e575 46bd 2fdc 17bb 4cbd 94bc
00000170: ee57 d9bb e0c8 f03c c9fe d5bc 7415 4c3c
00000180: 57e2 68bd c0a7 28bc 2656 2d3d e01c 9fbb
00000190: 607b 573d 1e06 34bc 40c7 52bc 0311 f33b
000001a0: 24b0 11bd 9459 3ebd acb4 ad3c 2ab4 18bd
000001b0: 40e7 45bb dec1 71bd bdcc dfbc e603 64bb
000001c0: 960f 153d 1d84 61bd 8245 063d f0eb c2bc
000001d0: d36c 16bd b3a0 81bd 8c93 c6bc da35 dfbc
000001e0: 900b 083c f0aa 423d 60d2 933b d936 4dbd
000001f0: 80ee 0e3d a2fa 08bd 0c44 763d c02b 02bb
00000200: 00c3 0d3d 5eb1 7c3d 49bd e6bc 2eba 77bd
00000210: a8fb 16bd 9cca 4c3d ef75 cd3c a6ba 9fbb
00000220: 4e2f 453d 64c9 a5bc 981d 633c 7287 bfbc
00000230: 0b08 be3c c798 38bd 40fd 6dbb 3ab2 223d
00000240: 6e59 34bd 585e 7b3d cc5e d9bc b893 243d
00000250: f096 c53c ffc8 203c 037c b2bb 82ee 07bd
00000260: 40c1 a33a 2cb1 35bd 59b4 2a3d 5992 9c3c
00000270: 90e5 20bd 807f ab3a f08a 493c 1325 6ebc
00000280: 32a2 2b3d 7bb3 b7bc 8747 2e3c 8279 023d
00000290: 8858 29bc 44ef 2d3d 2087 293b deb6 06bd
000002a0: 1ef6 1cbd 9d5f 4b3d 0889 d53b 9c43 4dbc
000002b0: ac26 db3c c8c0 313c f028 c43b 5c63 163c
000002c0: 6ce8 243d c43d 103d aeaa 88ba 005c 04b9
000002d0: 26bb 6f3d 241d 7bbd c0e3 163d 183e c83c
000002e0: 64b7 cb3a b8b1 553d 1671 2a3d 60ee 75bc
000002f0: 81e3 4e3c 9012 c6bb 0002 62bd 653f 2c3b
00000300: 9a6f 533d 77e0 14bd 1442 bcbc 40a5 8b3a
00000310: 128a 303d e05f 3fbb 9a21 6dbc 9aa5 6a3d
00000320: 8b8c 3fbd 5d1b 9a3c eaf3 b8bc 34a0 81bc
00000330: b16d 3bbd 576a 693b 000c a33c a881 163c
00000340: e0b5 04bb d573 17bd d0bf f3bc 06fb 0a3d
00000350: 8081 52bd 545b 093d 882e 133c 8971 24bc
00000360: c208 363d 24d5 54bd 0e46 673d a5bf 1cbd
00000370: c96c 74bd c03e 8bba 7057 953b 6ad2 10bd
00000380: b091 533c 0131 27bd 14fa 38bd d001 f1bb
00000390: ce29 193c 995a ed3c 5007 433d dcce df3c
000003a0: 8efc 6e3d ebde 2d3d ea12 483d fa6c 5cba
000003b0: 10cb 203d 051a 373d 65c6 483c 7e7b 53bd
000003c0: 0047 9039 2285 10bd 5550 3c3d ed6f 67bd
000003d0: 32d0 053d 435b eebc 7b7f 9c3c e2f0 93bc
000003e0: 6a05 4d3d fd96 8db9 404d db3a 6c59 7a3d
000003f0: 443a 02bb 4a4b 193d ce40 313d 8649 60bd

model.2.bias f4 [256]
-0.06480903 0.152157 0.1215783 -0.06895785 0.12331765 0.051027104 0.0135102635 -0.0055107316
0.20979927 0.09660707 0.016715303 0.060770575 -0.055349983 -0.030012589 0.06321516 -0.058748245
0.066792965 0.08830911 0.054310158 0.06354436 0.004496366 -0.008419347 0.054275807 -0.036967613
-0.025888849 0.10977836 0.017598588 0.05423767 0.001491997 -0.02114991 -0.04043825 -0.037278373
-0.063880615 0.09374792 0.046639685 -0.063695885 -0.036808975 -0.070886366 -0.045910336 -0.05572497
-0.012968527 0.07081762 -0.020452863 0.16882898 0.06646834 0.07777065 0.12352522 0.042871635
0.07542445 0.058189716 0.02467452 0.14005241 0.04595255 -0.0028530061 -0.036820784 -0.057722583
0.15239172 -0.04511559 -0.006316453 -0.01290422 0.0902582 0.0041978937 0.09007797 -0.041759312
0.1380452 -0.060347944 -0.053224012 -0.0027726644 0.04917127 -0.055239055 -0.066052504 -0.06026596
0.11571213 -0.01447899 -0.03399148 -0.056897387 0.005571524 0.13674355 -0.055259816 0.06363523
0.0145788565 -0.012263093 0.0073004686 -0.052912753 0.072144896 -0.013815217 -0.052893125 0.026108995
0.0029995963 -0.041577153 0.005420451 0.09091291 0.08692762 0.007571707 0.008142323 0.046236705
0.075154744 -0.049808733 0.047636323 -0.056253456 -0.059906833 0.054491114 0.020315118 0.090545736
0.06370815 -0.016701113 -0.020757169 0.03699397 -0.016382532 -0.050953336 -0.050853014 -0.051437147
0.0094027575 -0.0025586383 0.095256604 -0.028228179 0.092026964 -0.013005096 -0.049598485 0.019317191
0.009609846 0.0021361588 0.024606913 -0.041145552 0.10213435 0.049883563 0.015483398 0.10870218
-0.022799537 0.122699 -0.01682961 0.04234657 0.097574055 0.11469337 0.14319374 0.02265245
-0.034360707 -0.061958544 0.07501755 -0.04724626 0.06988059 0.08480911 0.09473652 -0.03859859
0.048134845 -0.039290525 0.0418548 0.013155224 0.08193142 0.08121397 0.14581484 0.03955091
-0.01157973 0.018332798 -0.017357722 0.044832963 -0.041941404 0.049857315 -0.011831333 0.032718815
-0.019828148 0.047815643 -0.035836708 0.069703594 -0.04177544 0.071125574 -0.06707988 -0.04613006
0.079383485 0.035257153 0.052629724 0.06749275 0.12558445 0.01440263 -0.031216647 0.054918904
0.13688175 0.10829751 -0.036982976 -0.01611786 -0.05351101 -0.008533457 -0.04090103 0.030022588
0.051997192 0.07509506 0.037202436 0.12758231 0.08261303 -0.041317746 -0.02051691 -0.0580796
-0.0059342426 0.041431747 -0.06032207 0.14450513 0.0052207736 -0.045357414 -0.055293363 -0.058353744
-0.018437527 0.12942402 -0.059733346 -0.039899223 0.049082372 0.049697496 -0.02648029 0.028940843
0.12211604 -0.053336278 0.07781018 0.07715675 0.117675796 0.090420045 0.06572509 -0.034368448
0.0630426 0.12808937 0.035008658 0.05576412 0.026102647 -0.009840204 0.058773853 -0.006634745
-0.018763497 -0.03198244 -0.0008686225 -0.0600158 -0.005240593 -0.027887106 0.109887585 -0.0013743989
-0.0108529 -0.057721354 -0.05542633 0.025715265 -0.06625615 0.02562928 -0.01811784 -0.014442322
0.12671737 -0.005567302 0.021850375 -0.010384408 0.13574022 -0.013419628 -0.05245912 -0.022921097
-0.0112538375 -0.0008826107 -0.035295434 -0.057928436 -0.0498159 0.10881804 0.07936832 -0.008672594
00000000: 99ba 84bd 0bcf 1b3e 0bfe f83d c639 8dbd
00000010: f78d fc3d cc01 513d 275a 5d3c 5e93 b4bb
00000020: 9fd5 563e edd9 c53d 88ee 883c 91ea 783d
00000030: aab6 62bd f6dc f5bc f376 813d 00a2 70bd
00000040: c0ca 883d 68db b43d 5474 5e3d 8c23 823d
00000050: 4056 933b 4df1 09bc 4f50 5e3d 5a6b 17bd
00000060: da14 d4bc 7ad3 e03d ea2a 903c 5228 5e3d
00000070: 1d8f c33a 9342 adbc 94a2 25bd 35b1 18bd
00000080: d7d3 82bd e9fe bf3d 4109 3f3d fd72 82bd
00000090: 02c5 16bd df2c 91bd 7a0c 3cbd de3f 64bd
000000a0: f279 54bc d408 913d c38c a7bc 81e1 2c3e
000000b0: 8e20 883d 3846 9f3d cafa fc3d 2b9a 2f3d
000000c0: 2278 9a3d 5758 6e3d 3822 ca3c e669 0f3e
000000d0: be38 3c3d 80f9 3abb 64d1 16bd 846e 6cbd
000000e0: 930c 1c3e 20cb 38bd 40fa cebb 396c 53bc
000000f0: 4bd9 b83d 7c8e 893b cc7a b83d d00b 2bbd
00000100: b95b 0d3e 682f 77bd 6c01 5abd 97b5 35bb
00000110: d067 493d 5942 62bd 8946 87bd 70d9 76bd
00000120: 7bfa ec3d 4939 6dbc a63a 0bbd 3c0d 69bd
00000130: 5591 b63b 8006 0c3e 1e58 62bd 3053 823d
00000140: 28dc 6e3c 24eb 48bc c538 ef3b 0bbb 58bd
00000150: b4c0 933d 3859 62bc 76a6 58bd 88e2 d53c
00000160: e094 443b ce4c 2abd 0a9e b13b 8c30 ba3d
00000170: 1c07 b23d 151c f83b 6167 053c b362 3d3d
00000180: bbea 993d 3e04 4cbd 4e1e 433d 066a 66bd
00000190: de60 75bd 1332 5f3d e46b a63c 0b70 b93d
000001a0: 6b79 823d c6d0 88bc f00a aabc fd86 173d
000001b0: a934 86bc 72b4 50bd 404b 50bd c2af 52bd
000001c0: 060e 1a3c d4ae 27bb e515 c33d c83e e7bc
000001d0: a278 bc3d 5413 55bc c827 4bbd 163f 9e3c
000001e0: 9e72 1d3c ccfe 0b3b 7094 c93c 3d88 28bd
000001f0: d02b d13d b552 4c3d 14ae 7d3c 409f de3d
00000200: 18c6 babc 9d49 fb3d 40de 89bc 9973 2d3d
00000210: e8d4 c73d 5ce4 ea3d 61a1 123e a191 b93c
00000220: d0bd 0cbd 3ec8 7dbd cda2 993d 4b85 41bd
00000230: 8e1d 8f3d 66b0 ad3d 3805 c23d 8e19 1ebd
00000240: 0b29 453d 1aef 20bd f06f 2b3d 0289 573c
00000250: a9cb a73d 8353 a63d 7c50 153e 2300 223d
00000260: e8b8 3dbc aa2e 963c c831 8ebc c5a2 373d
00000270: c0ca 2bbd 2f37 4c3d 35d8 41bc 2a04 063d
00000280: a46e a2bc 56da 433d 83c9 12bd c2c0 8e3d
00000290: b91c 2bbd 49aa 913d 2d61 89bd e0f2 3cbd
000002a0: cf93 a23d ce69 103d 4492 573d a439 8a3d
000002b0: 3699 003e 02f9 6b3c 0eba ffbc a5f2 603d
000002c0: bb2a 0c3e 16cb dd3d 767b 17bd 9a09 84bc
000002d0: 5c2e 5bbd eacf 0bbc d787 27bd eef1 f53c
000002e0: 02fb 543d 70cb 993d 9561 183d f0a4 023e
000002f0: 0531 a93d cc3c 29bd 1413 a8bc e0e4 6dbd
00000300: 0974 c2bb 56b4 293d 4614 77bd 27f9 133e
00000310: 0613 ab3b b2c8 39bd 4b7b 62bd 5604 6fbd
00000320: 4c0a 97bc bb87 043e f4aa 74bd 5e6d 23bd
00000330: 990a 493d 9a8f 4b3d 31ed d8bc 5915 ed3c
00000340: f917 fa3d 2477 5abd f25a 9f3d 5c04 9e3d
00000350: 0200 f13d 252e b93d e09a 863d eec5 0cbd
00000360: 7b1c 813d dc29 033e 3d65 0f3d eb68 643d
00000370: 38d5 d53c cf38 21bc dabc 703d 4668 d9bb
00000380: e8b5 99bc 0500 03bd 45b4 63ba 21d3 75bd
00000390: 48b9 abbb 8073 e4bc be0c e13d 2d25 b4ba
000003a0: 5dd0 31bc 3a6d 6cbd b806 63bd d2a8 d23c
000003b0: 4eb1 87bd 7ff4 d13c dd6b 94bc 7d9f 6cbc
000003c0: 33c2 013e ea6d b6bb 8fff b23c 5d23 2abc
000003d0: 7cff 0a3e 00de 5bbc 60df 56bd 06c5 bbbc
000003e0: 0462 38bc 005f 67ba f291 10bd 5e46 6dbd
000003f0: c20b 4cbd fedb de3d dc8b a23d 7f17 0ebc

model.4.weight f4 [9, 256]
-0.0001949343 -0.2569597 -0.73198414 0.04254558 -0.3219085 -0.05229491 0.27269897 0.18344069
-0.12553573 -0.14774536 0.104489274 -0.28328225 0.0335448 0.032840054 0.098063044 0.04363752
0.2680252 0.2343021 0.19949435 0.120427914 -0.017531611 -0.04201545 -0.25644872 -0.027365647
-0.01860187 -0.35722926 -0.38446018 0.33699307 -0.014627838 -0.045721736 -0.033613954 -0.028382925
-0.04611075 -0.027959274 -0.25387642 0.036064256 -0.044022612 -0.023450706 -0.04797133 -0.012349783
0.06839256 0.30618495 0.25907043 -0.33133543 -0.4695073 -0.52598166 -0.29984513 -0.16399463
0.08006647 0.19760254 0.18404591 -0.47532523 -0.20774752 -0.028479457 0.13120009 -0.025568388
-0.2703446 -0.039941117 0.012054409 0.10799263 -0.1305625 -0.035201553 -0.3248985 0.026144743
-0.47997877 0.018009752 -0.056644075 -0.043868374 0.22009261 -0.059327867 -0.07090305 -0.010474071
-0.031639718 -0.41236377 0.03512109 0.0090010725 0.21649171 -0.35398087 0.035085402 0.22415155
-0.14470196 -0.3780174 -0.05422577 -0.0038392036 -0.2920601 0.02408465 0.042752504 0.037549194
-0.053624198 0.020858109 0.15173179 -0.16172698 -0.11185641 0.22115731 0.13988736 -0.15568319
-0.36199397 -0.036291473 -0.16625218 0.040146165 0.0152658895 -0.49789345 0.26018274 0.3327915
0.34135386 0.018584652 -0.05973716 0.3423868 0.2928209 0.04372427 0.026718192 0.0073888907
-0.21200572 -0.037536383 -0.25737068 0.028546773 0.049110167 -0.037293375 0.04121551 0.32662868
0.050009865 -0.055183772 0.06448428 -0.029743496 0.1824783 0.176019 -0.019270638 0.12450301
-0.029370215 -0.13692808 -0.053034186 0.23381716 0.11014266 -0.11824027 -0.4644645 0.04596239
0.03416387 0.017581776 0.020537386 -0.02866814 -0.44639018 0.084014304 0.23694079 -0.055823006
0.25910854 0.008783974 0.020818442 0.19909933 0.29224336 -0.4061941 0.019229617 0.28664127
-0.015535586 -0.024655463 0.057302907 0.16081868 -0.029124957 -0.28370997 -0.05570337 -0.38099045
0.037139602 -0.26089665 -0.0035766547 0.28005984 0.019016339 -0.05828888 0.017986674 0.040951885
-0.3625314 0.21830866 -0.22308774 0.08461318 -0.45583558 -0.039498452 -0.09467317 -0.53282565
-0.71760947 -0.23994318 -0.015634656 0.27935928 -0.02147884 -0.03775868 0.039474167 0.04179598
0.048947103 -0.62085545 -0.07210802 -0.44172063 0.17987148 0.035475902 0.021021374 -0.062183872
0.14315614 0.10070708 -0.039524652 -0.4902453 -0.02906069 -0.04721669 -0.009635604 -0.052374326
0.19029266 0.19306497 0.04043506 0.010439143 0.07700582 0.2344057 -0.05614013 0.27481964
-0.28498307 0.0066490024 0.21991144 -0.08401713 -0.022009686 -0.13962036 -0.3272458 0.051391594
0.1559056 -0.22791971 0.061175108 0.0792479 0.070111744 -0.013649359 -0.1736712 0.006851261
0.0123232305 -0.055955272 0.14948654 -0.009120664 -0.008316042 -0.0008359775 0.24643572 -0.3366951
0.011962535 -0.03937094 -0.040350474 0.15479803 0.023822881 -0.035942107 -0.012588582 -0.068592705
-0.41455072 -0.03515571 0.08918052 -0.0006474452 -0.36734304 0.0007505417 0.043161407 -0.009620169
-0.046179507 -0.028835818 0.008088917 -0.012029164 8.571893e-05 -0.4101224 0.38724515 0.0048207967
00000000: 4767 4cb9 3990 83be 5063 3bbf 4644 2e3d
00000010: 31d1 a4be 3033 56bd 339f 8b3e e0d7 3b3e
00000020: 708c 00be 8f4a 17be 79fe d53d 5f0a 91be
00000030: 4666 093d 4b83 063d 47d5 c83d 42bd 323d
00000040: 993a 893e e4ec 6f3e 3f48 4c3e e9a2 f63d
00000050: 749e 8fbc 6418 2cbd 3f4d 83be ec2d e0bc
00000060: f362 98bc c1e6 b6be f7d7 c4be 5b8a ac3e
00000070: 99a9 6fbc b746 3bbd c9ae 09bd 4f83 e8bc
00000080: a0de 3cbd d90a e5bc 17fc 81be 1db8 133d
00000090: 0e51 34bd b21b c0bc 967d 44bd bf56 4abc
000000a0: 6611 8c3d 46c4 9c3e e1a4 843e cca4 a9be
000000b0: 4363 f0be bca6 06bf 4d85 99be 35ee 27be
000000c0: e4f9 a33d 5258 4a3e 8876 3c3e d45d f3be
000000d0: c4bb 54be c04d e9bc 5159 063e cc74 d1bc
000000e0: 9b6a 8abe 4c99 23bd db7f 453c 3d2b dd3d
000000f0: 2db2 05be 812f 10bd 1959 a6be 802d d63c
00000100: c7bf f5be 3089 933c 9e03 68bd 53af 33bd
00000110: f55f 613e c701 73bd 9e35 91bd 709b 2bbc
00000120: a698 01bd 5821 d3be 22db 0f3d 3c79 133c
00000130: 01b0 5d3e fb3c b5be b6b5 0f3d fc87 653e
00000140: c02c 14be 7f8b c1be d71b 5ebd 269b 7bbb
00000150: e788 95be 2c4d c53c 401d 2f3d 2fcd 193d
00000160: 0ca5 5bbd a0de aa3c 945f 1b3e c29b 25be
00000170: f914 e5bd 1077 623e a23e 0f3e 6a6b 1fbe
00000180: 4657 b9be 5ea6 14bd 033e 2abe 4e70 243d
00000190: c81d 7a3c e4eb febe ac36 853e a663 aa3e
000001a0: efc5 ae3e d73e 983c f4ae 74bd 534d af3e
000001b0: 9fec 953e 3818 333d 1ce0 da3c 821e f23b
000001c0: 0718 59be c0bf 19bd 17c6 83be ecda e93c
000001d0: be27 493d f0c0 18bd 98d1 283d e03b a73e
000001e0: 25d7 4c3d 6108 62bd 5610 843d a2a8 f3bc
000001f0: 97db 3a3e 533e 343e 75dd 9dbc 6ffb fe3d
00000200: ce99 f0bc e036 0cbe 603a 59bd c46d 6f3e
00000210: 7a92 e13d f427 f2bd 4ace edbe 0f43 3c3d
00000220: 6aef 0b3d a807 903c 053e a83c 72d9 eabc
00000230: 418d e4be b10f ac3d 9ba0 723e aaa6 64bd
00000240: e0a9 843e a8ea 0f3c 708b aa3c b2e0 4b3e
00000250: eca0 953e acf8 cfbe 6e87 9d3c a5c2 923e
00000260: f888 7ebc 41fa c9bc 74b6 6a3d a7ad 243e
00000270: 7697 eebc 6f42 91be 3829 64bd 2e11 c3be
00000280: b21f 183d 3f94 85be 4f66 6abb 0164 8f3e
00000290: 27c8 9b3c 52c0 6ebd ca58 933c 2abd 273d
000002a0: b79d b9be 4e8c 5f3e 1d71 64be ad49 ad3d
000002b0: 4863 e9be 21c9 21bd 02e4 c1bd 4367 08bf
000002c0: 41b5 37bf aab3 75be 4014 80bc 2e08 8f3e
000002d0: 64f4 afbc d8a8 1abd aaaf 213d 4332 2b3d
000002e0: c27c 483d 62f0 1ebf 5fad 93bd 3529 e2be
000002f0: 3b30 383e 2e4f 113d 0435 ac3c 84b4 7ebd
00000300: 8697 123e 833f ce3d 9ae4 21bd 6f01 fbbe
00000310: af10 eebc 4a66 41bd a7de 1dbc 7686 56bd
00000320: 14dc 423e d3b2 453e 3c9f 253d f008 2b3c
00000330: 3ab5 9d3d 0c08 703e 31f3 65bd 29b5 8c3e
00000340: 4de9 91be e0df d93b 7730 613e 2c11 acbd
00000350: a84d b4bc a4f8 0ebe c38c a7be fe7f 523d
00000360: b8a5 1f3e c963 69be c092 7a3d b94c a23d
00000370: bf96 8f3d 90a1 5fbc ddd6 31be 8b80 e03b
00000380: 60e7 493c 5b31 65bd 0013 193e d66e 15bc
00000390: 0240 08bc 8025 5bba a559 7c3e 4d63 acbe
000003a0: 82fe 433c 6c43 21bd 8a46 25bd 6083 1e3e
000003b0: 3428 c33c 0838 13bd 5740 4ebc 557a 8cbd
000003c0: fe3f d4be 6fff 0fbd 47a4 b63d 50b9 29ba
000003d0: 6314 bcbe 00c0 443a 04ca 303d ea9d 1dbc
000003e0: b926 3dbd 1839 ecbc 6087 043c f815 45bc
000003f0: 00c4 b338 90fb d1be ff44 c63e c6f7 9d3b

model.4.bias f4 [9]
-0.14734684 -0.023569515 -0.01727198 -0.051261585 0.015113679 0.027055606 0.021342508 -0.016654568
0.06116312
00000000: 17e2 16be db14 c1bc f87d 8dbc abf7 51bd
00000010: 5d9f 773c b8a3 dd3c 7cd6 ae3c 296f 88bc
00000020: 2e86 7a3d
