scripts/trained_classifiers/nn_dinov2_gray_no_weights.pth (torch, 669564 bytes, 6 tensors)

model.0.weight f4 [256, 384]
0	0xbbd41ab8	-0.0064729117
1	0xbb81ab98	-0.003957223
2	0xbc910546	-0.01770271
3	0xbd3f5941	-0.04671598
4	0x3ce31e90	0.027724534
5	0xbb3e91c0	-0.0029078573
6	0xbc1dd6b4	-0.009633709
7	0xbd0d15f4	-0.034444764
8	0xbc929ed2	-0.017897997
9	0xbd1e958f	-0.03871685
10	0x3c8f07cc	0.017459773
11	0xbc8f1f30	-0.017470926
12	0x3cf5dbe8	0.030012086
13	0x3d201f62	0.03909243
14	0xbc9fb50c	-0.01949551
15	0xbd3ef40a	-0.046619453
16	0xbc434aa0	-0.011919647
17	0xbd248bd0	-0.040172398
18	0x3d13a636	0.036047183
19	0xbc20ce14	-0.009814758
20	0xbc602000	-0.013679504
21	0xbc910dc2	-0.017706756
22	0xbcc31579	-0.02381395
23	0xbcd46e70	-0.025931567
24	0xbd0f6c22	-0.035015233
25	0x3c98e8a4	0.01866562
26	0xbb06f3d0	-0.00205921
27	0x3ca93734	0.020656206
28	0x3d438dbe	0.047742598
29	0xbcf3d12c	-0.029762827
30	0xbcdcf029	-0.026969986
31	0xbc98fe18	-0.018675849
32	0xbd4f85d1	-0.050664727
33	0xbb1b6540	-0.0023711473
34	0xbd3be448	-0.045872003
35	0x3cc5b4c8	0.024134055
36	0xbcca72eb	-0.024713
37	0xbd4ad19a	-0.049516298
38	0x3c9aaaf4	0.018880345
39	0x3d3e4ce2	0.04646004
40	0xbd289aaf	-0.041163143
41	0xbd190361	-0.037356738
42	0x3d19f4a4	0.037586823
43	0xbcca18a8	-0.02466996
44	0xbcfc8d78	-0.030829176
45	0xbcf5f144	-0.030022271
46	0xbd2eb681	-0.042654518
47	0x3ce75620	0.02823931
48	0x3d4bca4c	0.049753472
49	0x3c8873ac	0.01665672
50	0xbce847da	-0.028354574
51	0xbd1d37f8	-0.038383454
52	0x3b65cda0	0.003506519
53	0x3c0edcc4	0.008719627
54	0xbce38c50	-0.027776867
55	0xbcb9c742	-0.022678021
56	0x3d1d8fc6	0.03846719
57	0xbc3fe0c0	-0.011711299
58	0xbd3d3e02	-0.046201713
59	0x3babf2e0	0.005247459
60	0xbd252f58	-0.040328354
61	0x3d12f834	0.035881236
62	0xbd4fee03	-0.050764095
63	0xbd264315	-0.04059132
64	0x3c9d71f4	0.019219376
65	0xbd1ef78b	-0.038810294
66	0xbd4a72cf	-0.049425896
67	0xbcff7c95	-0.031187335
68	0xbd0b902c	-0.03407304
69	0x3b9153f0	0.004435055
70	0xbcf2ec1f	-0.029653607
71	0xbd4a98aa	-0.049461998
72	0x3d3c352c	0.045949146
73	0xbd2ba9ec	-0.041910097
74	0xbd3c202c	-0.04592912
75	0xbd4f6a0a	-0.050638236
76	0x3d042bca	0.032268323
77	0x3c9805ac	0.018557392
78	0xbd26c24a	-0.040712632
79	0xbd1c7a14	-0.03820236
80	0xbd2a9943	-0.041650068
81	0xbb11eeb0	-0.0022267513
82	0xbd4e9324	-0.050433293
83	0x3d4ed044	0.050491586
84	0x3c81e614	0.01585678
85	0xbd253c22	-0.04034055
86	0xbd231beb	-0.039821547
87	0x3cd77574	0.026301123
88	0xbd034d16	-0.032055937
89	0xbd4559d0	-0.048181355
90	0xb993a080	-0.00028157607
91	0xbccbea3d	-0.024891967
92	0xbd0b89b2	-0.034066863
93	0xbc8791c6	-0.016549002
94	0x3d3f099a	0.046640016
95	0xba82a6c0	-0.0009967908
96	0xbd3ff5f9	-0.046865437
97	0x3cf3f338	0.029779062
98	0x3d0ab8b8	0.033867568
99	0xbd18801e	-0.037231557
100	0x3c855d54	0.016279854
101	0x3d081bc4	0.033229604
102	0x3bc68270	0.00605803
103	0x3c21d630	0.009877726
104	0x3cab50f4	0.020912625
105	0xbd2a5b00	-0.04159069
106	0x3cb2dbc4	0.021833308
107	0x3c390e98	0.011294983
108	0xbc893f6c	-0.016753875
109	0xbd3968f4	-0.045266107
110	0x3cf1c740	0.029513955
111	0x3ce2e034	0.027694799
112	0x3d075ce4	0.03304757
113	0xbd35e4fe	-0.044407837
114	0x3c951718	0.018199489
115	0xbbdfa728	-0.0068253465
116	0x3c91a490	0.017778665
117	0xbc545b30	-0.012961194
118	0xb8376800	-4.3727458e-05
119	0x3c36ff98	0.011169337
120	0x3d03b976	0.03215929
121	0xba849f00	-0.0010118186
122	0xbc4aca54	-0.01237734
123	0xbd4b92bc	-0.049700484
124	0x3d200746	0.039069436
125	0xbb87e800	-0.0041475296
126	0xbd001e91	-0.03127915
127	0x3ccde808	0.025135055
128	0xbd1bf0fe	-0.038071625
129	0xbd4e90bc	-0.050431
130	0xbd108cb0	-0.03529042
131	0x3cf5d1b0	0.030007213
132	0x3c0e0c34	0.008669902
133	0x3cf5fafc	0.030026905
134	0xbd3c120e	-0.045915656
135	0xbd0c224a	-0.034212388
136	0xbcd21c97	-0.025648398
137	0x3d076376	0.033053838
138	0xbd28b51e	-0.04118835
139	0x3d327092	0.043564387
140	0xbcab0098	-0.020874307
141	0xbc43398c	-0.011915576
142	0xbcdd0cd1	-0.02698365
143	0xbd2f64a1	-0.042820577
144	0x3bcefaf8	0.006316539
145	0xbb03c680	-0.002010733
146	0x3d19a9fa	0.037515618
147	0x3ccaaae8	0.024739698
148	0x3bb27da8	0.0054471083
149	0x3d111788	0.03542283
150	0xbd405e7c	-0.046965107
151	0xbd43b1b6	-0.0477769
152	0xbc949bfc	-0.018140785
153	0xbd0bd9ba	-0.034143187
154	0xbc86cbc4	-0.016454585
155	0xbcd07d36	-0.02545033
156	0xbd203e17	-0.039121713
157	0xbc928b92	-0.017888818
158	0xbca3993d	-0.01997053
159	0xbcc3e0d9	-0.023910927
160	0xbbb56e78	-0.0055368505
161	0xbd2300d5	-0.039795715
162	0xbd134d2b	-0.035962265
163	0x3cafa334	0.021440126
164	0xbd1e8e51	-0.038709942
165	0x3c701528	0.014653482
166	0x3d352a78	0.044229954
167	0xbcf03c7a	-0.029325712
168	0xbc566614	-0.013085861
169	0xbcb0d8cc	-0.021587752
170	0x3c43b060	0.011943907
171	0x3b840408	0.004028801
172	0x3c3f6e98	0.011684082
173	0xbca2af2f	-0.019858925
174	0x3d15532e	0.03645628
175	0x3c955b80	0.018232107
176	0x3d0c5c76	0.034267865
177	0xbd4d3f0d	-0.050108958
178	0x3cce8f8c	0.025214933
179	0xbcb2f4d2	-0.021845255
180	0x3ce59a5c	0.028027706
181	0x3d2f5f1e	0.04281532
182	0x3cc1fd38	0.023680314
183	0xbc84fcac	-0.016233765
184	0x3d14c6bc	0.03632234
185	0x3d3ccc64	0.04609336
186	0xbc286c2c	-0.010279696
187	0x3c460928	0.012087144
188	0xbd45c339	-0.048281882
189	0xbcded1c4	-0.027199633
190	0x3d125508	0.035725623
191	0xbc2290f4	-0.009922255
192	0xbce36a9f	-0.027760802
193	0xbd12d372	-0.03584618
194	0xbd0487f6	-0.032356225
195	0x3c888650	0.016665608
196	0x3d319248	0.043352395
197	0x3ccb1ca4	0.02479393
198	0xbd176462	-0.036960967
199	0xbb93e840	-0.0045137703
200	0x3d33157e	0.04372167
201	0x3cd70690	0.026248246
202	0x3d3307d2	0.04370863
203	0x3cb5638c	0.022142194
204	0x3c9ceee4	0.01915688
205	0xbd2a99c2	-0.04165054
206	0x3a0ae940	0.0005299039
207	0xbc787388	-0.015164264
208	0xbcddfb60	-0.027097404
209	0x3cd10598	0.025515363
210	0x3d2f16cc	0.04274635
211	0xbbe0b5c0	-0.006857604
212	0x3d12d6d8	0.035849422
213	0xbd1e8393	-0.038699698
214	0xbc9adca2	-0.018904034
215	0x3cbb03e0	0.022828996
216	0xbc226490	-0.009911671
217	0x3d1c66ba	0.038183905
218	0xbc83cef6	-0.016089898
219	0x3bac2190	0.0052530244
220	0xbc94ec86	-0.01817919
221	0xbc5a0a48	-0.013308115
222	0x3d304d02	0.04304219
223	0x3cf41ac4	0.02979792
224	0xbc243ed8	-0.010024749
225	0xbd2053b0	-0.03914231
226	0x3cdd2104	0.026993282
227	0xbc9a04a8	-0.018801048
228	0xbd20979e	-0.039207093
229	0x3d074e82	0.033033855
230	0x3c852878	0.016254649
231	0xbca8a082	-0.020584349
232	0x3cf898d4	0.030346312
233	0x3cc1330c	0.023583911
234	0x3d17bd3e	0.03704571
235	0xbbca98d8	-0.006182771
236	0x3d239df2	0.03994555
237	0x3cda3838	0.026638135
238	0x3d33aa08	0.043863326
239	0xbd473f64	-0.04864444
240	0xbd4d7c9d	-0.05016767
241	0x3c95dd18	0.018293902
242	0x3d3e1408	0.046405822
243	0xbcad4312	-0.021150146
244	0x3d051cb6	0.032498084
245	0x3c254f38	0.010089688
246	0x3d0feece	0.03513985
247	0x3c7e1948	0.015508957
248	0x3d13121c	0.035905942
249	0xbce8e77b	-0.028430691
250	0x3ca44a5c	0.020054989
251	0x3b7eb270	0.0038863681
252	0x3cc4b774	0.024013259
253	0xbd3f9ebf	-0.04678225
254	0x3d1f1d78	0.038846463
255	0xbce25e39	-0.02763282

model.0.bias f4 [256]
0	0xbcb58aae	-0.022160854
1	0x3d3a0797	0.045417394
2	0xbcf4fd3f	-0.029905913
3	0xbaaa8bd5	-0.0013011644
4	0xbc93b35a	-0.018029857
5	0xbbf32188	-0.0074197687
6	0xbcd42a0e	-0.02589896
7	0xbd25769d	-0.04039632
8	0xbc51dcaa	-0.012808958
9	0x3cdf2034	0.027237035
10	0xbc6cd8e4	-0.014456008
11	0xbbe5751f	-0.0070024873
12	0x3d6099cb	0.05483417
13	0xbcb4d6b8	-0.022075042
14	0xbb8003c0	-0.003906697
15	0x3d80a586	0.06281571
16	0xbcab3c95	-0.020902911
17	0xbc3355f4	-0.010945786
18	0x3bea1756	0.007143895
19	0xbd4e5346	-0.050372384
20	0xbcbc22b3	-0.022965765
21	0xbc4d57a8	-0.012533106
22	0x3b44efce	0.0030050161
23	0x3d83bf62	0.06432988
24	0x3d82ca92	0.063862935
25	0x3d2f4ace	0.04279595
26	0x3d04d6a9	0.03243128
27	0x3c801a93	0.015637672
28	0xbcc6c089	-0.02426173
29	0x3d8afd30	0.06786573
30	0xbba178ff	-0.004927754
31	0x3c62a52a	0.0138333235
32	0x3d7b2b7a	0.06132076
33	0xbcb038ce	-0.021511462
34	0x3d843237	0.0645489
35	0xbc8409a8	-0.016117886
36	0xbca6d9b5	-0.020367483
37	0x3c5d10e9	0.013492801
38	0xbd3b17b3	-0.0456769
39	0xbc9267be	-0.017871734
40	0xbc9e2c3c	-0.019308202
41	0xbc11e7c8	-0.008905359
42	0x3cfdf914	0.031002559
43	0xbcc8e6de	-0.024524149
44	0x3c8896a6	0.016673397
45	0x3ccc0a2c	0.024907194
46	0x3d0fbbeb	0.035091322
47	0x3cbef9f9	0.023312556
48	0xbc351f58	-0.011054836
49	0x3d5c45cb	0.053777497
50	0x3d2eb243	0.042650472
51	0x3c29e7e7	0.010370231
52	0xbcbf4543	-0.023348456
53	0x3c784c85	0.015154962
54	0xbc415018	-0.011798881
55	0x3be415ab	0.006960591
56	0xbd050db6	-0.03248378
57	0xbbc362fd	-0.005962728
58	0x3d1099ee	0.03530305
59	0xbc840c50	-0.016119152
60	0xbd0a493d	-0.03376125
61	0xbcd2478f	-0.025668887
62	0x3d4aec9b	0.04954205
63	0x3caead4b	0.021322867
64	0x3cf95310	0.030435115
65	0xbc407fce	-0.011749221
66	0x3d159527	0.036519196
67	0x3c4aab6f	0.0123699745
68	0xbc9dd150	-0.019264847
69	0xbd059744	-0.03261496
70	0xbd0142e6	-0.03155794
71	0x3d0491c5	0.03236558
72	0x3cb592eb	0.022164783
73	0x3c029684	0.007970456
74	0xbc888304	-0.016664036
75	0x3d496579	0.049169037
76	0xbcf2e347	-0.02964939
77	0xbc4d2128	-0.012520112
78	0xbccc800a	-0.024963398
79	0x3d117fb6	0.035522185
80	0x3c3006b6	0.0107437875
81	0x3d12ff70	0.035888135
82	0x3cc6d67b	0.024272194
83	0x3d9a1547	0.075235896
84	0x3c98ae76	0.018637877
85	0xbd20111f	-0.039078828
86	0xbd49fed9	-0.049315307
87	0x3cd792da	0.026315141
88	0xbcc842af	-0.02444586
89	0x3d1657b9	0.036704753
90	0xbd0ebd70	-0.03484863
91	0x3d1ade18	0.03780946
92	0xbc6ba6dc	-0.014383044
93	0x3afb1bd9	0.001915808
94	0x3d67a24a	0.056551255
95	0x3cd1ef00	0.02562666
96	0x3c227661	0.009915919
97	0xbbd05ebe	-0.0063589504
98	0xbc78d330	-0.01518707
99	0x3c0fa182	0.008766534
100	0x3e56c411	0.20973231
101	0xbbed4dde	-0.0072419485
102	0xbd1905eb	-0.03735916
103	0x3a82fa16	0.0009992744
104	0xbd05fd94	-0.032712534
105	0x3e304a3a	0.17215815
106	0x3cdc8879	0.026920544
107	0x3d514267	0.051088717
108	0xbc724bef	-0.014788612
109	0xbc8b511c	-0.01700645
110	0xbccbf3f9	-0.024896609
111	0x3ae4665a	0.0017425523
112	0x3d15eee2	0.03660477
113	0x3bf20bd9	0.0073866663
114	0xbc610dbc	-0.013736185
115	0x3d071e25	0.032987732
116	0xbc4bcb04	-0.012438539
117	0x3d48e339	0.04904482
118	0xbcfc92ac	-0.030831657
119	0xbd3069cc	-0.043069646
120	0xbd366f6a	-0.044539846
121	0x3d8c68d5	0.068559326
122	0x3cdd5ab6	0.027020793
123	0x3c37c1f0	0.011215672
124	0x399d4bb1	0.00030001768
125	0xbcce8fd4	-0.025215067
126	0xbd251184	-0.040299907
127	0x3cadc70b	0.021213075
128	0x3d020ba6	0.03174939
129	0xbd0561ce	-0.032563977
130	0x3d7af4ae	0.0612685
131	0x3d290d0f	0.04127222
132	0xbc791f80	-0.015205264
133	0xbd3365eb	-0.04379837
134	0x3cf33f01	0.029693129
135	0xbc50795c	-0.012724247
136	0xbd4b9a3e	-0.049707644
137	0x3e3d90c7	0.1851226
138	0x3d27b8ab	0.040947597
139	0xbca8c053	-0.02059952
140	0xbc76ffc4	-0.015075628
141	0xbd4da8c9	-0.050209794
142	0xbced58d5	-0.028973022
143	0x3c7b6b4d	0.015345407
144	0xbd28aa8e	-0.04117828
145	0xbd4ed3b0	-0.05049485
146	0x3d9530be	0.072846875
147	0xbc4381c7	-0.011932797
148	0xba8aea66	-0.0010598421
149	0xbd02f1d1	-0.031968895
150	0x3bf1bec7	0.0073774788
151	0xbc985669	-0.018595891
152	0xbd16c3ca	-0.036807813
153	0x3d455a4b	0.048181813
154	0xbd18ea20	-0.037332654
155	0xbd0eae60	-0.034834266
156	0xbc423538	-0.011853509
157	0x3c6b4361	0.014359326
158	0x3d11e831	0.035621826
159	0x3cc10cf9	0.023565756
160	0x3b2b9106	0.002617897
161	0x3ced5718	0.028972194
162	0xbd0444d2	-0.032292195
163	0x3d56011b	0.052247148
164	0x3d8709da	0.06593676
165	0x3d1509b9	0.036386225
166	0x3d610a23	0.054941308
167	0x3be2d453	0.0069222837
168	0xbd14f7c0	-0.036369085
169	0x3d19a904	0.0375147
170	0x3cbc84d9	0.023012565
171	0x3d5fc4a7	0.0546309
172	0x3ca7546b	0.020425996
173	0xbd2e5e94	-0.042570665
174	0xbd3e497a	-0.04645679
175	0x3d887a97	0.06664007
176	0x3bfa24d6	0.0076337857
177	0x3cfb8467	0.030702783
178	0xbc652038	-0.013984732
179	0x3ccd9901	0.025097372
180	0x3d5b43ca	0.053531446
181	0xbd42dc9a	-0.047573663
182	0xbd0297f2	-0.031883188
183	0xbd26af3c	-0.04069446
184	0x3d63244c	0.055454537
185	0x3cf41a47	0.029797686
186	0x3cff2ad7	0.031148357
187	0xbd21d420	-0.03950894
188	0xbd09d436	-0.033649646
189	0xbcc1b817	-0.023647351
190	0x3d176682	0.036962993
191	0x3d67a98d	0.05655818
192	0x3d0dabbb	0.034587603
193	0x3d224efc	0.039626107
194	0xbc823096	-0.015892308
195	0xbc85ad0e	-0.01631787
196	0x3cbdafe8	0.023155168
197	0x3d87d7cb	0.06632956
198	0xbd1f28a6	-0.038857125
199	0xbcb768d1	-0.022388848
200	0x3cca7360	0.024713218
201	0xbcfe8b34	-0.031072237
202	0x3c276e57	0.010219178
203	0xbd223b77	-0.03960749
204	0x3cc2ae8b	0.02376487
205	0x3b550aa4	0.0032507563
206	0xbd1150b0	-0.03547734
207	0xbd044d24	-0.03230013
208	0xbd0620f6	-0.032746278
209	0x3c17987b	0.009252663
210	0x3d320621	0.043462876
211	0xbcfa7fa2	-0.030578438
212	0x3c4f9736	0.012670329
213	0xbcedd295	-0.029031077
214	0x3c6ff565	0.014645909
215	0x3d7c7c46	0.061641954
216	0x3d2cbaa0	0.042170167
217	0xbd483b43	-0.04888464
218	0xbce0769f	-0.027400313
219	0xbcf45e60	-0.029830158
220	0xbc981770	-0.018565863
221	0x3d31366d	0.043264795
222	0x3d164278	0.036684483
223	0x3bbd3f6d	0.005775383
224	0xbc1c0414	-0.009522457
225	0xbcfce773	-0.030872082
226	0xbcf4e050	-0.029892117
227	0xbd2f1b4c	-0.04275064
228	0xbcce518c	-0.025185369
229	0x3d2d3184	0.04228355
230	0xbcec1f8e	-0.02882364
231	0x3e55a31e	0.20863006
232	0x3c985fc3	0.01860035
233	0xbc414ff8	-0.011798851
234	0xbc8ee460	-0.017442882
235	0x3d1e989c	0.03871976
236	0xbc1f23cb	-0.009713124
237	0xbc6521fb	-0.013985152
238	0x3c47cd3f	0.012194931
239	0x3d04ad5f	0.032391902
240	0xbd1bed83	-0.038068306
241	0x3c54ae51	0.012981013
242	0xbc985657	-0.018595858
243	0x3d44b428	0.048023373
244	0xbaccd8f4	-0.0015628622
245	0xb969d71a	-0.00022300743
246	0x3d8f3772	0.06992997
247	0x3da065c3	0.078319095
248	0x3d20adbd	0.03922819
249	0xbd377c38	-0.0447962
250	0x3cbd4412	0.023103748
251	0xbd2bdd83	-0.041959297
252	0xbd2834df	-0.041066047
253	0x3cbc4f11	0.02298692
254	0x3c44bc4a	0.012007782
255	0x3d4d23be	0.050082915

model.2.weight f4 [256, 256]
0	0x3c491640	0.012273371
1	0xbd5461ef	-0.05185121
2	0x3d7f638e	0.062350802
3	0xbd0cb46e	-0.03435176
4	0xbbc55370	-0.0060219094
5	0xbd119b46	-0.03554847
6	0xbccc6f7c	-0.024955504
7	0x3c6b08c8	0.014345355
8	0x3d140cef	0.036145147
9	0x3d22a22e	0.039705448
10	0x3b2fc9e0	0.0026823208
11	0xbd658751	-0.05603725
12	0x3b015658	0.0019735303
13	0x3d04d79e	0.03243219
14	0xbc932625	-0.017962525
15	0x3cf87a92	0.030331884
16	0x3b3d5b40	0.00288935
17	0xbc2f3f98	-0.010696314
18	0x3c4da524	0.01255158
19	0x3bd047e0	0.0063562244
20	0x3cc769e4	0.024342485
21	0xbd3ea77a	-0.046546437
22	0xbd02635b	-0.031833034
23	0x3ca913eb	0.02063938
24	0x3c05898b	0.008150469
25	0x3ab5b455	0.0013862947
26	0xbd89b481	-0.067238815
27	0xbd1463a8	-0.036227852
28	0xbc97cb18	-0.01852946
29	0xbd83015d	-0.063967444
30	0xbd0eb681	-0.034842018
31	0xbc950ea3	-0.018195456
32	0x3d54eee4	0.051985636
33	0x3ae90d80	0.0017780513
34	0xbd65052f	-0.055913147
35	0xbc1b46f0	-0.009477362
36	0x3d4cac44	0.049968973
37	0xba8dd68f	-0.001082139
38	0x3d571c4c	0.05251722
39	0xbbb4f6b0	-0.0055225715
40	0x3d57747e	0.05260133
41	0xbd76876e	-0.06018775
42	0xbc88da9a	-0.0167058
43	0x3cb05744	0.021525986
44	0x3bb1c923	0.0054255887
45	0x3d6180cc	0.05505447
46	0x3d2f30dd	0.04277121
47	0xbbeac30f	-0.007164366
48	0xbd272efe	-0.0408163
49	0xbd3bc2e9	-0.045840178
50	0xbd30cf38	-0.04316637
51	0xbd279d11	-0.040921275
52	0x3d70d364	0.058795348
53	0x3c5fc7f5	0.013658513
54	0xbd0ecfa6	-0.034865998
55	0x3d11be0a	0.035581626
56	0x3d6f40e0	0.05841148
57	0x3c12f748	0.008970089
58	0x3d4d243f	0.050083395
59	0x3d1bc4be	0.038029425
60	0x3c1b1e58	0.009467684
61	0xbc567358	-0.0130890235
62	0xbd56490a	-0.05231575
63	0xbd6f05ed	-0.05835526
64	0xba8f726a	-0.0010944132
65	0x3cfe89f4	0.03107164
66	0x3ba8c060	0.005149886
67	0x3ceffc8f	0.029295234
68	0xbc80e274	-0.015732981
69	0x3d78bba6	0.06072583
70	0x3d479a66	0.04873123
71	0xbd3d1da4	-0.046170846
72	0x3c9281fd	0.017884249
73	0x3cfa28ac	0.030536972
74	0xbc0fa7d8	-0.008768044
75	0xbc039336	-0.008030703
76	0x3b5029c0	0.0031763166
77	0xbc6948b0	-0.014238521
78	0x3cb55c14	0.022138633
79	0x397daef4	0.00024193135
80	0x3d4b0a17	0.04957017
81	0xbd24d0a2	-0.04023803
82	0x3ce38765	0.027774522
83	0xbcc1625f	-0.023606477
84	0xbd9050a9	-0.07046635
85	0xbc1e9940	-0.009680092
86	0xbd3766f6	-0.044775926
87	0x3cf6de72	0.030135367
88	0xbd56f1c2	-0.052476652
89	0xbcbb61c5	-0.022873769
90	0x3c19d5e8	0.009389378
91	0xbd8b163b	-0.067913495
92	0xbcbf3770	-0.023341864
93	0xbd21cd85	-0.03950264
94	0xbccc2b62	-0.02492303
95	0xbd638716	-0.05554875
96	0xbd036b9b	-0.032085042
97	0xbbcd5a25	-0.0062668496
98	0x3a996200	0.001170218
99	0x3d1ba63d	0.038000334
100	0xbdc804c3	-0.09766533
101	0x3bba916b	0.0056936047
102	0x3ba57450	0.005049266
103	0xbd63bb36	-0.05559846
104	0x3cad12a0	0.021127045
105	0xbd5fcf7e	-0.05464124
106	0x3d4b4a0a	0.049631156
107	0x3c8ad270	0.016946048
108	0xbcfc1285	-0.03077055
109	0xbd35136e	-0.044207983
110	0xbd606724	-0.054785863
111	0xbc7628e2	-0.015024396
112	0xbd15f6cb	-0.036612313
113	0xbd1710ff	-0.036881443
114	0x3c8085a8	0.015688732
115	0xbd3815a3	-0.04494251
116	0x3d19ad44	0.037518755
117	0x3bc2db2e	0.0059465384
118	0xbd595f64	-0.053069487
119	0xbb32d960	-0.002729021
120	0x3cbd8568	0.023134902
121	0xbd77b575	-0.060475785
122	0xbc504adc	-0.01271316
123	0x3d6d51d4	0.057939366
124	0x3c2cbfbf	0.010543763
125	0xbcb5359c	-0.02212029
126	0xbd671b4a	-0.05642251
127	0x3b1f3b42	0.0024296795
128	0x3d265774	0.040610746
129	0x3d551f16	0.0520316
130	0x3d27673b	0.040869933
131	0xbd41819f	-0.047242757
132	0xbce7cfc4	-0.028297313
133	0xbd539ec8	-0.051665097
134	0x3d167d13	0.036740374
135	0x3d34c9a6	0.04413762
136	0x3cfc1eb4	0.03077636
137	0xbdb8520a	-0.09000023
138	0x3d1bf7eb	0.03807823
139	0xbd6c1db8	-0.05764553
140	0xbd37f5a2	-0.044911988
141	0x3d13100c	0.035903975
142	0xbd17d44c	-0.037067696
143	0x3c8eb066	0.017418098
144	0x3c7fe750	0.015619114
145	0x3d7df4e4	0.062001124
146	0x3d23853d	0.039921988
147	0x3d63ba9b	0.055597883
148	0xbba5aa4f	-0.0050557028
149	0x3d526b6c	0.051371977
150	0xbd5349f3	-0.051584195
151	0x3c9a44c0	0.01883161
152	0xbbe19f30	-0.0068854317
153	0xbd97c19b	-0.07409974
154	0xbd2f7e76	-0.042845212
155	0xbc82a8a4	-0.015949555
156	0xbd3c0b84	-0.04590942
157	0xbd207525	-0.039174218
158	0xbd4e8eb9	-0.05042908
159	0x3c726f3c	0.014797028
160	0x3d2443d7	0.04010376
161	0x3c258c31	0.010104225
162	0x3d3a4b36	0.045481883
163	0x3ce778f9	0.028255926
164	0x3d45f447	0.048328664
165	0xbcc77b6f	-0.02435085
166	0x3d0684c4	0.03284146
167	0x3ce48565	0.027895639
168	0x3c492c58	0.012278639
169	0xbd888039	-0.066650815
170	0xbd8558ee	-0.065111026
171	0xbc04c0a1	-0.008102567
172	0x3d308508	0.04309562
173	0xbabc4f80	-0.0014366955
174	0xbd66be5c	-0.056333885
175	0x3d0617e4	0.032737628
176	0xbd4c6d52	-0.049908943
177	0xbd2916fc	-0.041281685
178	0xbd7721ca	-0.060334958
179	0x3bff0d98	0.007783603
180	0x3b62a356	0.003458222
181	0x3ca3a35c	0.019975357
182	0xbceb8f40	-0.02875483
183	0xbcbaa364	-0.022782989
184	0xbc19a38c	-0.0093773715
185	0xbccf2011	-0.025283845
186	0x3c1f1656	0.009709915
187	0x3d77a9c8	0.06046465
188	0xbd783f5e	-0.060607307
189	0xbcf97f9c	-0.030456357
190	0xbd8740e3	-0.06604173
191	0xbaffeb15	-0.0019525016
192	0x3c78392f	0.015150352
193	0x3d06c3c0	0.032901525
194	0x3baaaef0	0.0052088425
195	0xbc2cefb0	-0.010555193
196	0x3c62e013	0.013847369
197	0xbd4400ce	-0.04785233
198	0x3a245600	0.00062689185
199	0xbafbdcc0	-0.0019215569
200	0x3c97e2ff	0.018540857
201	0xbd163870	-0.036674917
202	0xbd02fa03	-0.03197671
203	0xbbcf7000	-0.00633049
204	0xbd1c92d0	-0.03822595
205	0x3cf4b5b8	0.029871807
206	0x3d4cd838	0.05001089
207	0xbc058fc0	-0.008151948
208	0xbd5a0fb0	-0.053237617
209	0xbd752ceb	-0.05985729
210	0xbc83865b	-0.016055277
211	0xbd041116	-0.032242857
212	0xbcceccba	-0.025244106
213	0x3d016244	0.031587854
214	0xbd3c4cea	-0.04597179
215	0xbd335dd8	-0.04379067
216	0x3c5a46ea	0.013322571
217	0x3c939024	0.018013068
218	0xbd05e794	-0.032691553
219	0xbc3c8c00	-0.011507988
220	0xbcc2abb4	-0.023763515
221	0xbcb50d5c	-0.022101097
222	0xbcddf04c	-0.027092122
223	0x3d0f08b5	0.034920413
224	0x3cdee2e8	0.027207807
225	0xbd575174	-0.052567914
226	0x3c900024	0.017578192
227	0x3d1cb2fa	0.038256623
228	0x3d428640	0.047491312
229	0x3cb9b4fb	0.022669306
230	0xbc73cd68	-0.014880516
231	0xbdf9ec74	-0.12203303
232	0x3cd5b86b	0.026088914
233	0xbd536b1a	-0.051615812
234	0xbb82e750	-0.0039948598
235	0xbd958acf	-0.07301866
236	0x3d7848df	0.06061637
237	0x3c8d667e	0.017260786
238	0xbc8831f1	-0.016625376
239	0xbc8ec6bd	-0.01742875
240	0x3ce43794	0.027858533
241	0x3d49e164	0.049287215
242	0x3d40e394	0.047092035
243	0xbd5c6508	-0.05380729
244	0x3c6eb0e4	0.014568541
245	0xbd8df181	-0.06930829
246	0x3d34b56a	0.044118322
247	0x3ca71d8a	0.020399828
248	0xbc1eecbe	-0.009699998
249	0xbb8b50c0	-0.0042515695
250	0xb9849276	-0.00025286124
251	0x3d46036a	0.0483431
252	0x3c8300a0	0.015991509
253	0xbd864586	-0.06556229
254	0xbb8c1243	-0.004274638
255	0xbd40543e	-0.04695534

model.2.bias f4 [256]
0	0x3d16c333	0.03680725
1	0xbb2780c3	-0.0025558926
2	0xbd2dca10	-0.04242903
3	0xbc793540	-0.01521045
4	0x3b3084e0	0.0026934668
5	0xbcd5b478	-0.02608703
6	0x3d8ddbb2	0.06926669
7	0xbb95b69d	-0.0045688883
8	0x3daf7216	0.08566682
9	0xbcf19eae	-0.02949461
10	0x3d8eb966	0.06968956
11	0xbd389ea1	-0.045073155
12	0xbc841d39	-0.016127216
13	0x3e08a23e	0.1334314
14	0xbd0837f6	-0.033256494
15	0xbd6feaa1	-0.05857337
16	0x3c9ed417	0.019388242
17	0x3e110439	0.14161767
18	0xbcca8025	-0.024719307
19	0x3c8e4467	0.017366601
20	0x3d0fd63b	0.035116415
21	0x3b4556cd	0.0030111552
22	0xbd16ea98	-0.03684482
23	0xbcb636f8	-0.022243008
24	0xbc78215d	-0.015144673
25	0x3d88c9e9	0.06679136
26	0xbd837aec	-0.0641993
27	0x3daf43cc	0.08557853
28	0xbccfd11c	-0.025368266
29	0x3b27a9ac	0.002558331
30	0x3b929711	0.004473575
31	0xbd172f8a	-0.03691057
32	0xbd7b7db5	-0.06139918
33	0x3d2e44ce	0.042546086
34	0xbd73e690	-0.059546053
35	0x3e24eced	0.16106005
36	0xbd12bad4	-0.035822704
37	0xbd463c26	-0.048397206
38	0xbd7ffda1	-0.06249774
39	0xbcfff2c3	-0.031243687
40	0x3d82634e	0.06366597
41	0xbd10f993	-0.035394263
42	0x3d13864c	0.036016747
43	0xbc606248	-0.013695307
44	0x3bcba590	0.006214805
45	0xbd771872	-0.060326047
46	0xbcefe172	-0.029282305
47	0x3ce9a700	0.028522015
48	0x3b6bb7d5	0.0035967727
49	0x3dd2b8fc	0.10289189
50	0x3d601168	0.0547041
51	0x3d78fa23	0.060785424
52	0xbd6f19a5	-0.058374066
53	0x3c954f8e	0.018226411
54	0xbb3fadb9	-0.0029247834
55	0xbcbccc4d	-0.023046637
56	0xbd7c2b00	-0.061564445
57	0xbd882fc2	-0.06649734
58	0x3e13c8cd	0.14432068
59	0xbca08b88	-0.019597784
60	0xbd1316ae	-0.0359103
61	0x3be82391	0.007084318
62	0xbc22c24a	-0.009934017
63	0x3c161060	0.009159178
64	0xbd1b44ea	-0.03790752
65	0xbcccc3df	-0.024995742
66	0xbd78e084	-0.06076099
67	0x3df51f55	0.11968867
68	0xbd3be305	-0.0458708
69	0x3d1095f3	0.035299253
70	0x3d3a43c4	0.045474783
71	0x3d9086bf	0.07056951
72	0x3b75e61e	0.0037521194
73	0xbd6cdb26	-0.057826184
74	0xbc02e579	-0.007989281
75	0xbc974f63	-0.018470472
76	0xbc39f5bc	-0.011350092
77	0xbccf0ae4	-0.025273748
78	0xbd39edec	-0.045392916
79	0x3edb4d84	0.42832577
80	0x3c98fcf2	0.018675301
81	0xbc0ab7b2	-0.008466648
82	0xbd8c8264	-0.068608075
83	0x3d678ec0	0.05653262
84	0xbca7deea	-0.020492036
85	0xbca45b44	-0.02006305
86	0xbdab6ebe	-0.08370732
87	0x3e3e467f	0.1858158
88	0xbd402a2e	-0.046915226
89	0x3e976ea7	0.2957661
90	0xb92e9f0a	-0.0001665318
91	0xbbc5d5f5	-0.0060374686
92	0xbdb5af1a	-0.088712886
93	0x3db99ada	0.09062739
94	0x3e493f82	0.19653133
95	0x3c01ca14	0.007921714
96	0xbce5c710	-0.028049022
97	0xbca5c625	-0.020236084
98	0xbc5fc24e	-0.013657166
99	0x3edbb460	0.42911053
100	0x3cc4644a	0.023973603
101	0x3d632cef	0.055462774
102	0xbd59552e	-0.05305975
103	0xbbcc85d8	-0.0062415414
104	0xbd4d62b8	-0.050142974
105	0xbd99ab16	-0.07503335
106	0x3e32c49b	0.17457812
107	0x3db93d4e	0.09044896
108	0xbd454380	-0.048160076
109	0xbc516910	-0.0127813965
110	0x3da7dca2	0.08196379
111	0xbd608d32	-0.054822154
112	0x3a9ef7c0	0.0012128279
113	0xbd18bc65	-0.037289042
114	0x3a3f69d3	0.0007301841
115	0xbd919d1c	-0.07110044
116	0xbc1fb3e7	-0.009747482
117	0xbcccdcd4	-0.025007643
118	0xbcd0269a	-0.025409032
119	0x3d02b534	0.03191109
120	0x3db6ace6	0.089196965
121	0xbd49d537	-0.049275603
122	0x3d4aee97	0.049543943
123	0x3cfd5299	0.030923175
124	0x3bf9d288	0.0076239742
125	0xbc92dff6	-0.017929059
126	0xbd55ad60	-0.052167296
127	0xbce83260	-0.028344333
128	0x3d952b22	0.072836176
129	0xbd07de48	-0.03317097
130	0xbccc0884	-0.024906404
131	0xbaeb41ef	-0.0017948727
132	0xbd50625b	-0.05087505
133	0x3c1469b4	0.009058405
134	0xbd450166	-0.048097037
135	0xbd2a6948	-0.04160431
136	0x3de75baa	0.112967804
137	0xbccb1944	-0.024792321
138	0x3de446e3	0.11146333
139	0xbcabeb3f	-0.020986198
140	0x3c11151d	0.008855131
141	0x3d2b8d5c	0.041882858
142	0xbcd56b94	-0.026052274
143	0x3db20ef9	0.08694262
144	0xbb25096b	-0.0025182615
145	0x3d58b4cc	0.052906796
146	0x3d7df5b2	0.06200189
147	0x3cd6da20	0.026227057
148	0xbbc883d0	-0.006119229
149	0x3ccb7af3	0.0248389
150	0xbd4d661b	-0.050146203
151	0xbbdbb79f	-0.006705239
152	0x3df93857	0.12168949
153	0xbd331947	-0.04372528
154	0xbd50ce5e	-0.050978057
155	0xbd53fca5	-0.051754612
156	0x3c235b80	0.009970546
157	0xbdbad07b	-0.09121796
158	0xbc659401	-0.014012338
159	0x3d1f893e	0.038949244
160	0xbd5bf879	-0.05370376
161	0xbd7e7cb6	-0.062130652
162	0x3c8ec68c	0.017428659
163	0x3b4c87f9	0.0031208976
164	0x3d0a7a0e	0.033807807
165	0xbd7803d4	-0.060550526
166	0xbbafc2b0	-0.0053637847
167	0xbd55caee	-0.052195482
168	0x3d2fdd31	0.042935554
169	0x3d5503db	0.05200563
170	0xbd51429c	-0.051088914
171	0xbd667b38	-0.056269854
172	0x3e144f37	0.14483343
173	0xbcedef52	-0.02904478
174	0x3d0ed7cd	0.034873772
175	0xbd7da598	-0.0619255
176	0x3d93fc1e	0.07225822
177	0x3e2f3581	0.17110254
178	0x3d89abaa	0.067221954
179	0x3ce193ff	0.02753639
180	0xb9b9f458	-0.00035468
181	0xbe0aab43	-0.13541894
182	0x3cb7bfab	0.022430262
183	0x3c92200f	0.017837552
184	0xbcf09f5b	-0.029372862
185	0x3cb04846	0.021518838
186	0x3d856285	0.06512932
187	0xbafbec7a	-0.0019220256
188	0xbc108dd6	-0.008822879
189	0x3da65681	0.08121968
190	0xbd9fdc30	-0.07805669
191	0xbd033c92	-0.032040186
192	0xbd054846	-0.03253963
193	0x3c8dcb65	0.0173089
194	0xbd31670e	-0.04331117
195	0xbd4c57a1	-0.049888257
196	0xbd90e1d9	-0.07074327
197	0x3ddc2f31	0.107511885
198	0xbba36c31	-0.0049872627
199	0xbd360da2	-0.044446595
200	0xbd21ae1a	-0.039472677
201	0xbd1879e0	-0.037225604
202	0x3cc737bb	0.024318567
203	0x3d92bf7b	0.07165428
204	0xbc5a3661	-0.013318629
205	0xbc38955e	-0.011266081
206	0xbcd9892c	-0.026554666
207	0xbd11684a	-0.03549985
208	0x3b377d12	0.0027998132
209	0x3bd5c6e3	0.0065239533
210	0x3c0daf09	0.008647689
211	0x3be57d44	0.007003458
212	0xbd7d6f6c	-0.06187384
213	0x3d0beb2d	0.034159828
214	0x3d52f24c	0.051500604
215	0xbbc27a64	-0.0059350003
216	0xbced2c91	-0.028951915
217	0x3e540595	0.20705254
218	0x3d1d946a	0.038471617
219	0xbe18b01b	-0.14910929
220	0xbe0a8a7f	-0.13529395
221	0x3ecb6cf4	0.39731562
222	0x3c38ae56	0.011272034
223	0x3e118c8f	0.14213775
224	0x3dbcfc7e	0.092278466
225	0x3e2947c7	0.16531287
226	0x3ca76270	0.02043268
227	0x3e10a652	0.14125946
228	0x3be85a6b	0.007090857
229	0xbd557fcc	-0.05212383
230	0x3b463624	0.0030244673
231	0xbb57f1c3	-0.0032950498
232	0xbd127652	-0.03575737
233	0xbd24c38e	-0.040225558
234	0x3d97cf0a	0.074125364
235	0xb9ab486e	-0.00032669626
236	0xbd2ec719	-0.042670343
237	0xbd32440d	-0.04352193
238	0xbd5518b4	-0.05202551
239	0xbd153a48	-0.036432534
240	0x3d08613d	0.03329586
241	0x3e40a08e	0.18811247
242	0xbe3d073b	-0.1845979
243	0x3d02ed1d	0.03196441
244	0x3d8c9b8a	0.06865604
245	0x3da5c1f4	0.08093634
246	0xbafc7422	-0.0019260684
247	0xbd67a346	-0.056552194
248	0xbd570586	-0.052495502
249	0xbd916b05	-0.071004905
250	0xbb8c9590	-0.00429029
251	0x3ed0e36d	0.40798512
252	0x3d8a74bb	0.06760546
253	0x3e1783e8	0.14796412
254	0x3d8d9098	0.06912345
255	0xbd03d3a6	-0.032184266

model.4.weight f4 [9, 256]
0	0x3c7bd21c	0.015369918
1	0x3e4a2a53	0.19742708
2	0xbc693d6b	-0.014235835
3	0xbdd42fe7	-0.10360699
4	0xbd18046a	-0.037113585
5	0x3d29bba6	0.04143872
6	0x3e03a32a	0.12855211
7	0xbd652cb6	-0.055950843
8	0xbe21df66	-0.15807876
9	0x3e74a141	0.23889638
10	0xbdc57fd3	-0.09643521
11	0x3df3cc0c	0.11904153
12	0xbd4b7944	-0.049676195
13	0xbe838896	-0.25690144
14	0x3d40e293	0.047091078
15	0x3e3f2dcc	0.18669814
16	0x3e4dd1da	0.20099583
17	0xbe9abdfe	-0.30223078
18	0xbcf009b3	-0.0293015
19	0x3e3b646c	0.18300027
20	0xbe8977b4	-0.2684914
21	0xbb9e3a57	-0.004828732
22	0xbd4fb8a4	-0.050713196
23	0xbd528744	-0.05139853
24	0xbd527606	-0.051382087
25	0xbe4f2b26	-0.20231304
26	0x3e8c5adc	0.2741307
27	0x3dfeae7f	0.12435626
28	0x3d0de9d0	0.03464681
29	0x3e37e256	0.17957434
30	0xbb65d0a9	-0.0035066998
31	0x3d4a934a	0.049456872
32	0x3e902063	0.2814971
33	0x3e0cb3d7	0.13740478
34	0x3d310d0a	0.043225326
35	0xbecf6727	-0.40508386
36	0x3bf5d86c	0.007502606
37	0xbbdd0b30	-0.0067457184
38	0x3cc84f73	0.024451947
39	0xbcaa1fe6	-0.020767163
40	0x3e16370d	0.14669438
41	0x3d4e6fd7	0.050399628
42	0x3e1dff90	0.1542952
43	0x3e0fe428	0.14051878
44	0x3e5f8f2f	0.21831964
45	0x3d7e1342	0.062030084
46	0x3d720b51	0.059092823
47	0x3e1ccfc8	0.15313637
48	0xbd165e4b	-0.03671102
49	0x3d94484f	0.07240354
50	0x3e4092f2	0.18806055
51	0x3e187740	0.1488924
52	0x3c1f00f4	0.009704817
53	0xbd493585	-0.049123306
54	0xbd5735b7	-0.05254146
55	0x3b374660	0.002796553
56	0x3d150b26	0.036387585
57	0x3e8bbe33	0.27293548
58	0xbf0f2427	-0.5591454
59	0xbd50fd26	-0.05102267
60	0xbc0df44b	-0.008664201
61	0xbd097f43	-0.03356863
62	0x3e0df64e	0.13863489
63	0xbd00724c	-0.031359002
64	0xbd5a1dda	-0.053251125
65	0xbaca85ef	-0.0015451292
66	0x3d26743e	0.0406382
67	0x3de81aad	0.11333213
68	0x3d1d7d93	0.038449835
69	0x3e31d442	0.17366126
70	0x3e186fdb	0.1488642
71	0x3df7d8b9	0.121018834
72	0xbc3167e3	-0.010827991
73	0x3cdbeea4	0.026847191
74	0x3e79037e	0.24317738
75	0xbb27b7b1	-0.0025591666
76	0x3e460eb3	0.19341545
77	0x3e826fe9	0.25476006
78	0xbb6c6160	-0.0036068782
79	0xbf194d95	-0.59884006
80	0xbb8d429d	-0.0043109194
81	0xbd3261d6	-0.043550335
82	0x3e83d345	0.25747123
83	0x3c0961fb	0.008385177
84	0x3e4f84d6	0.20265517
85	0x3e2de8de	0.16983363
86	0x3d6d3dfa	0.057920434
87	0xbeaf3afd	-0.34224692
88	0x3c272648	0.010201998
89	0xbe44e379	-0.19227399
90	0xbd423631	-0.047414962
91	0x3e12ca05	0.14334877
92	0x3e834b67	0.25643465
93	0xbee62f13	-0.4495779
94	0xbe96ef14	-0.29479277
95	0xbc7d2afd	-0.015452144
96	0x3d4c9c5e	0.04995381
97	0x3e2bc849	0.16775621
98	0xbd1cfc26	-0.038326405
99	0xbee5ea59	-0.44905356
100	0x3e1d0400	0.15333557
101	0x3e2c1328	0.16804183
102	0x3c689538	0.014195733
103	0xbc308c81	-0.010775686
104	0x3d5e6eaa	0.054304756
105	0x3d656e4a	0.056013383
106	0xbe8a5541	-0.2701817
107	0xbe86745d	-0.26260653
108	0x3d05ccba	0.032665946
109	0x3d044166	0.03228893
110	0xbebcd8c2	-0.36884123
111	0x3c88cde4	0.016699739
112	0x3e359b96	0.17735133
113	0x3acb028e	0.0015488432
114	0x3c727935	0.014799406
115	0x3b9d8465	0.0048070424
116	0x3e49fdc5	0.19725712
117	0x3d176670	0.036962926
118	0xbd7bab32	-0.06144256
119	0x3e3be31e	0.18348357
120	0xbdca225a	-0.09869833
121	0x3e5dae9b	0.21648638
122	0x3e008ca8	0.12553656
123	0x3e3bf576	0.18355355
124	0x3c43d824	0.011953387
125	0x3e10e302	0.14149097
126	0xbd4c9d9e	-0.049955003
127	0xbc87512f	-0.016518204
128	0x3dcb9d10	0.09942067
129	0xbd3d1c8c	-0.046169803
130	0x3bcd4640	0.006264478
131	0xbd07b718	-0.033133596
132	0xbc6c687f	-0.014429211
133	0x3e3d62f7	0.18494783
134	0xbc896e80	-0.016776323
135	0xbd0635f2	-0.03276629
136	0xbd7c3487	-0.06157353
137	0xbcfcf694	-0.030879296
138	0x3dec7cb1	0.115472205
139	0x3ccea7a1	0.025226416
140	0xbc79950b	-0.0152332885
141	0xbd19421d	-0.037416566
142	0x3d08cad8	0.033396572
143	0x3e34eaa1	0.17667629
144	0x3e242a29	0.16031708
145	0x3d8caeff	0.06869315
146	0x3e487567	0.19576035
147	0xbb920770	-0.004456453
148	0x3e8441b9	0.25831392
149	0xbcea95d5	-0.028635899
150	0xbd562399	-0.052280042
151	0x3de52bac	0.111899704
152	0xbe9fabd4	-0.31185782
153	0xbcaa0f3e	-0.020759221
154	0x3e7c3020	0.24627733
155	0xbd207d36	-0.03918191
156	0xbd63d326	-0.05562129
157	0x3eb3759d	0.3505067
158	0xbd465c07	-0.048427608
159	0xbcf42c30	-0.029806226
160	0x3e620126	0.2207075
161	0x3d61b6f8	0.055106133
162	0xbb26ba60	-0.0025440678
163	0xbd470057	-0.04858431
164	0x3e09c390	0.13453507
165	0xbd54dbce	-0.051967435
166	0x3d71beea	0.05901996
167	0x3d7e507e	0.062088482
168	0xbcb350f6	-0.021889191
169	0x3d24bfcd	0.040221978
170	0xbd4786f2	-0.04871268
171	0x3cb03244	0.021508344
172	0xbea28d91	-0.31748632
173	0x3e6e046b	0.23243873
174	0xbbd9d9a0	-0.0066482574
175	0x3cd4d608	0.025980964
176	0xbe9e3a46	-0.30903834
177	0xbeb71d02	-0.3576432
178	0x3dd3d1e6	0.10342769
179	0x3de031f9	0.109470315
180	0xbd4395c0	-0.047750235
181	0x3e924b39	0.28573015
182	0xbc95641e	-0.018236216
183	0xbd1c184b	-0.038109105
184	0x3d1004e6	0.03516092
185	0x3e0f0a5c	0.13968796
186	0x3de45a91	0.11150087
187	0x3c542cb8	0.012950115
188	0x3d9e8084	0.07739356
189	0x3dd575eb	0.10422882
190	0x3ea03387	0.31289312
191	0x3d76f254	0.060289696
192	0x3c9896c8	0.018626586
193	0xbd00c20e	-0.031435065
194	0x3d90bced	0.07067285
195	0x3cdbc1a5	0.026825735
196	0x3d912e3d	0.070888974
197	0xbe94d2a6	-0.29066962
198	0x3cdc78cd	0.026913071
199	0xbbf2b2e0	-0.0074065775
200	0xbb5ff160	-0.003417097
201	0x3d7d0804	0.061775222
202	0xbbaf109a	-0.005342555
203	0x3dbe7d52	0.09301247
204	0xbcd24455	-0.025667349
205	0x3a003f3f	0.0004892237
206	0x3d4c9f66	0.0499567
207	0x3d13fd80	0.03613043
208	0x3e403083	0.18768506
209	0xbd473138	-0.048630923
210	0x3e3cb046	0.18426618
211	0x3df49492	0.119424
212	0xbcb22fa5	-0.021751234
213	0x3e39e894	0.18155128
214	0x3e08384d	0.13302727
215	0x3e4fd754	0.20296985
216	0xba8dbadd	-0.0010813136
217	0xbf0081ce	-0.50198066
218	0xbcc1bb69	-0.023648934
219	0x3eb3f8f6	0.3515088
220	0x3eb786ff	0.3584518
221	0xbf19fece	-0.60154426
222	0xbb8a94c1	-0.0042291586
223	0xbe964145	-0.29346672
224	0x3de35d28	0.111017525
225	0xbe9a45b4	-0.30131304
226	0xb8ec578d	-0.000112696645
227	0xbec109bd	-0.37702742
228	0xbd49924d	-0.04921179
229	0xbd63be62	-0.055601485
230	0x3e3f7f58	0.18700922
231	0x3dfff5c8	0.12498051
232	0xbc3e3b80	-0.011610866
233	0xbbb1bc00	-0.0054240227
234	0x3e140dc2	0.14458373
235	0xbd0eba66	-0.034845732
236	0x3e8c6279	0.2741888
237	0xbcb94741	-0.022616984
238	0xbd111434	-0.035419658
239	0x3d1adee8	0.037810236
240	0xbcb498aa	-0.022045452
241	0xbec1c858	-0.37848163
242	0x3db9f340	0.090795994
243	0x3ad4d11e	0.0016236638
244	0x3df995d8	0.121867836
245	0x3dbff429	0.09372742
246	0xbb3d0759	-0.002884349
247	0xbc8a22bc	-0.016862266
248	0x3cb35df0	0.021895379
249	0xbd1b45f2	-0.037908502
250	0x3c945a50	0.01810947
251	0xbf0f5e4f	-0.5600328
252	0x3e34b257	0.17646156
253	0xbe827a39	-0.25483873
254	0x3e168f1d	0.14703031
255	0x3beebf20	0.0072859675

model.4.bias f4 [9]
0	0xbde10131	-0.10986555
1	0x3d8a305e	0.067475066
2	0x3d772be7	0.060344603
3	0xbdf3787b	-0.11888214
4	0xbc006c23	-0.007838282
5	0x3de2d471	0.11075676
6	0x3d505434	0.050861552
7	0x3db9c04e	0.09069882
8	0x3d5afe63	0.05346526
