scripts/trained_classifiers/nn_dinov2_weighted_256_seed42.pth (torch, 669604 bytes, 6 tensors)

model.0.weight f4 [256, 384]
00000000: 1b6a 27be e7c2 a2bc e730 8d3c 2728 7a3e
00000010: b541 c4bd 39fb a9bd 96d4 d9be f352 1f3d
00000020: 5495 b23d 8572 503c 67a3 9e3d 021e 0bbc
00000030: 39b1 6d3e abd8 263e 793c 31bc f173 733e
00000040: a7d5 38bd bf1e 23bd 9d2a b4bd 70c8 98bc
00000050: 6bf5 adbe c88d 86bc 1a81 88bd 7f50 a0bd
00000060: 33e2 19bd a910 69be c8c4 1a3e 1056 e73e
00000070: 637f f33d 3d96 fcbd 2aee b73e cd30 4cbe
00000080: 5e88 f0bd 7218 27be 5596 123d 4a43 9d3d
00000090: e9e3 07be e7bc 08bc 48b9 9a3d 6a42 b6be
000000a0: 8617 a3bd 85c3 6abe 497a 31be 5407 043d
000000b0: b945 5b3c 0906 4fbd 04f4 a73d c104 ab3e
000000c0: 2be6 6d3e cc4b 56be 1a2a 613d f9ee 8bbc
000000d0: d5a9 46bd f124 2bbd 9693 bfbc c4b1 b33d
000000e0: 3fee 9cbd f5d6 903e 1386 15be e8d5 11bf
000000f0: d3fc 00be 5100 abbd 5e50 ebbd e598 283d
00000100: 3a6c f23d 4113 ab3d 7b51 bbbd 92bd 933c
00000110: 9f2b 0cbe f795 113e 3728 2e3c e238 1d3e
00000120: e76d 1b3d dddd ec3d 1fc8 393d 90e2 25bd
00000130: ad44 eb3d c6b2 74bd e19e 2a3e fdda ac3d
00000140: 1c3a 83be 40c1 04be 0ba0 543e 409b d9bd
00000150: 4679 c63d 770f a73d 5986 163e e015 8e3b
00000160: 015a 4c3e 836f 44be 4422 543e 5f95 a3bd
00000170: c0de 043e cac1 723e eb92 353b 7dfb fdbc
00000180: 7284 7bbd a38b 753c 8d77 ff3e a621 b43e
00000190: 277e 843e 1e52 79bd b025 61bc b94f 833d
000001a0: e466 07be 9edd cf3d 94bb 75be ba3c 1dbe
000001b0: 7217 503d ec43 95bc ba5a 773e ddd8 7bbd
000001c0: 2bab eebd 631d b63d 2f09 df3d f132 93bd
000001d0: e8b3 383c 7a11 48be fd29 463e 3cb6 1ebe
000001e0: 25ed edbd 764c 1d3e b30c 2c3e 1698 8a3e
000001f0: 32f3 b5bb 9d35 6cbd d90c 03be e4ce b8ba
00000200: 1504 d33c 010a 08bd c21c 143d 7f7c 64bd
00000210: 3b20 e6bd 5400 e53d f22a f43c 693f 003c
00000220: 275e 27be 7485 b03d 5c42 77bd 7237 7d3e
00000230: 7ce0 783d e766 52be 1d68 3e3c 2530 453b
00000240: e9a0 093e 4575 f9bd 0ec8 40bd 32f0 98be
00000250: 7958 083e 71df 993e 8bcc 3a3e 27b1 c33d
00000260: 028a 2cbd f5ac 69be 81b0 093e d01c debe
00000270: 6efe 3fbe dd9d 82be 7fa5 803e 1e88 3abe
00000280: e654 76be a07d 1abe 2164 953e 5ee8 8abe
00000290: 1742 cfbd 1bbc 363e 83e3 04bd 779f 493e
000002a0: 693c 303d caf1 96be 8d5e 693d 7cd2 44be
000002b0: 692e 063d 83bc da3e f154 d8bd 5f2d ecbc
000002c0: 00ba 86be 8ef9 c53d 349d ebbc 6fd7 3abb
000002d0: c507 443d a1b9 9a3e 48c5 cabe 43fa 87be
000002e0: 2a55 adbe d95a 76bc e3b8 5b3b 54cd dcbd
000002f0: 6c2a a9bd 5091 d13d 8b1a 93be c569 42bd
00000300: 1ea2 9d3d 11e3 cd3d ff12 f5bd ba9c a7bd
00000310: d539 df3d 3468 613d 52c2 003d fdf6 ffbd
00000320: fb53 05bf 1ca9 65be 97e7 c13e 78e5 29be
00000330: c16a 103e 7c8e a03c 4b9c a13d ef0b 39be
00000340: 20da f73c e72b 36be b465 55be 21fe e43d
00000350: 718e 7bbe 4714 7c3e 11c2 853d e7c4 31be
00000360: 2710 edbe 9bd3 37be c239 023d 22f9 63ba
00000370: 71c5 f2bb 4fda 12be ba1e cbbe 496d debc
00000380: 0a87 743e c893 ab3d 58bc 4c3e c6ac 593d
00000390: 9747 8c3e 1114 55be a816 853e 2809 d8bd
000003a0: 7b40 2abe 4b65 8b3e 6a9b dfbd 473b b3bd
000003b0: 19b6 13be 19d5 343e c1ec d0bc 40ba 32be
000003c0: 5adc 9d3d eadb 09bd dccb fe3d 8958 2a3e
000003d0: 932a 77bd b220 a0be 47ad 0f3e dd3c 1a3d
000003e0: 2d0a 023e 3b97 09bd 7dd8 4b3e a685 c33e
000003f0: 1c0e afbd cb80 c13b 6479 d53c aba3 963a
-0.1634907 -0.019868327 0.017235233 0.2442938 -0.09582845 -0.0829987 -0.42545003 0.038897466
0.08719888 0.012722616 0.0774601 -0.008491041 0.23212136 0.1629359 -0.01081764 0.23774697
-0.04512563 -0.039824244 -0.0879719 -0.018650264 -0.33976302 -0.016425028 -0.06665249 -0.078278534
-0.037569236 -0.22760262 0.15114129 0.45182848 0.118895315 -0.12333343 0.35923892 -0.19940491
-0.1174476 -0.16317919 0.0357879 0.0767885 -0.13270535 -0.008345819 0.07554871 -0.35597545
-0.07963471 -0.22926147 -0.17331804 0.03223355 0.013383322 -0.050542865 0.08200839 0.33402064
0.23232333 -0.20927352 0.05497179 -0.017081724 -0.04850181 -0.041783277 -0.023385804 0.087741405
-0.07662629 0.28289 -0.14601927 -0.5696702 -0.12596445 -0.0834967 -0.11489938 0.041161437
0.11837049 0.08353282 -0.091464005 0.01803473 -0.13688515 0.14217363 0.010629705 0.1535373
0.037946608 0.115657546 0.045356866 -0.04049927 0.11487708 -0.059740804 0.1666217 0.08440206
-0.2563027 -0.12964344 0.20764177 -0.10625315 0.096911 0.081572466 0.14699687 0.004336104
0.19956209 -0.19183163 0.20716196 -0.07987475 0.12975597 0.23706737 0.0027705978 -0.031003708
-0.061405607 0.014986905 0.49895898 0.35181922 0.25877497 -0.06086933 -0.013741896 0.0641169
-0.13222843 0.10149692 -0.23997337 -0.15355197 0.05080361 -0.018220864 0.24155703 -0.061486114
-0.116537414 0.08892324 0.108904235 -0.07187451 0.011273362 -0.19537917 0.19351955 -0.15499204
-0.11617497 0.15361199 0.1680172 0.27069157 -0.005552673 -0.057668317 -0.1279787 -0.0014099744
0.025758782 -0.033212665 0.036160238 -0.05578279 -0.11236616 0.11181703 0.029805634 0.007827618
-0.1634451 0.08619204 -0.06036602 0.24728182 0.06076096 -0.20547067 0.011621502 0.003008851
0.13440289 -0.121805705 -0.047065787 -0.29870754 0.13315 0.30053285 0.1824209 0.095552735
-0.042123802 -0.22819884 0.13446237 -0.43381357 -0.18749401 -0.25511065 0.25126263 -0.18215987
-0.24055824 -0.15086985 0.29177955 -0.27130407 -0.101200275 0.17845194 -0.032443535 0.19689737
0.04302636 -0.29481345 0.056974936 -0.19220918 0.032759104 0.42721948 -0.10563076 -0.028830228
-0.26313782 0.096667394 -0.028761484 -0.0028509756 0.047858972 0.3021975 -0.3960364 -0.26558122
-0.33854038 -0.015036308 0.003352695 -0.10781351 -0.082600445 0.10232794 -0.28731188 -0.04746415
0.07696937 0.10053075 -0.11966514 -0.0818419 0.108997025 0.055031016 0.03143532 -0.12498281
-0.5208127 -0.22427791 0.37872002 -0.16591442 0.14103223 0.019599192 0.07891139 -0.18070959
0.030255377 -0.17790185 -0.20839578 0.11181284 -0.24566056 0.2461711 0.06531156 -0.17360269
-0.46301386 -0.17951815 0.031793363 -0.00086964865 -0.0074087908 -0.1434109 -0.3967188 -0.02715172
0.23879638 0.083777964 0.19993722 0.053143285 0.2739837 -0.20808436 0.25993848 -0.105486214
-0.1662616 0.27225718 -0.10918315 -0.08751541 -0.14424933 0.17659415 -0.025503518 -0.17453861
0.07708044 -0.033656992 0.12441227 0.16635336 -0.060343336 -0.31274945 0.14030944 0.0376557
0.12699194 -0.03359149 0.19906802 0.38187903 -0.08547613 0.005905246 0.02605886 0.0011492869

model.0.bias f4 [256]
00000000: a5de 243d c2e6 53bc 52db 80bc f8b5 40bc
00000010: 4368 243d bc6a af3d 8bd6 f93c 24ef 3abd
00000020: 58c0 38bd 027f 0ebd 3000 9cbc 1cc1 81bc
00000030: df43 433d c224 3fbd 74a7 803d 78a9 b4bc
00000040: d9a8 ad3d 5d92 4a3d 8936 4ebc 714e fe3c
00000050: 522c 3a3d 555d 6f3d ef6f 823d 14c5 fcbc
00000060: e63f 3e3d cfe3 1dbd 82c3 8d3d 63c1 3f3d
00000070: 801b 553d 438d 6d3d 3755 debc aa38 5cbc
00000080: c8b7 f4bc 3b17 213d f4f5 2cbd 265a 1e3d
00000090: 94a8 e43c d28f 293d 06e2 14bd a466 10bd
000000a0: 6433 a73d 5544 3bbd 8544 2d3d 97fb 7e3d
000000b0: cea7 06bd 3e6a 033d 3190 893d 2111 493d
000000c0: 5040 55bc f9a0 3c3d 1e89 313d 0242 0fbd
000000d0: 8aec 5a3d 3ffb 4e3d 0cba f1bc ff62 2f3d
000000e0: d203 f13c f9ea 223d 62dd fcbc 223f 063d
000000f0: 9eb5 09bd 58e0 c9bc 6bd1 213d 9843 06bd
00000100: 8c5b 5f3d 4653 d1bc b5a2 36bd 8ed2 3dbd
00000110: 1034 68bc 9320 9b3d ff78 2fbd 609a 9c3d
00000120: 134c 323d 29c3 143d 88e6 273d 3945 17bd
00000130: b9a0 533d 3e52 503d 9493 fcbc a154 2d3d
00000140: 2341 593d b799 33bd 0d7e 1ebd ec68 7b3d
00000150: 4f98 d33c c6be b23c 8749 37bd a270 3bbd
00000160: 555a a2bc ba99 06bd 5d1d 6a3d e1e5 e5bc
00000170: 5ba8 fabc 3269 8cbc 5873 383d ba95 053d
00000180: ca1f 403d 9769 1dbd 2ac5 1dbd d15c 163d
00000190: 040e 8b3d 2079 02bd 9e27 0bbd c89d 2dbc
000001a0: 542b 53bc 026f 1dbd 31ea 153d 6f10 de3c
000001b0: 9022 c4bc c987 5c3d fe18 503d 77a6 743d
000001c0: 7a59 44bd 2b2c bbbc 6fb0 c33c 91e6 aabc
000001d0: 77f9 07bd 914d fbbc 108f a0bc b75c 1e3d
000001e0: c1fb c43c 2c0e 20bd 1af9 6a3d 872c b5bc
000001f0: b21f ccbc 55dc cc3c c80b a1bc 2972 293d
00000200: c3de 5c3d 6690 1d3d 90e9 63bc f199 f1bb
00000210: ebcb 5d3d a73e 313d d0ee 963c 2429 01bd
00000220: 9625 983c 4195 233d 1dfe b0bc de38 ddbc
00000230: a4c5 233d 8a52 0fbd 1845 863d 9940 513d
00000240: a2ba 693d 60b0 173d 3999 263d 094b a4b9
00000250: 5ed5 4f3d 2408 39bd 2700 e4bc 6d4b 7c3d
00000260: 66f7 3d3d cb2d 003d dfa0 fe3c d23f 4fbd
00000270: 1940 723d ecc8 e9bc 927e 8b3d 70ee 2abd
00000280: 10d8 6dbc 06f1 d93c 50bd 04bd fef5 603d
00000290: 1394 1fbd e47e 2dbd 5e8d 3cbd 7755 8d3d
000002a0: ea97 113d beb5 023d bc78 02bd 1924 373d
000002b0: 9e6e 923d 10ec d5bc 7f3b 343d a1b3 3dbd
000002c0: c44d b0bc 2af7 843d 5060 acbc 125b 863d
000002d0: e461 313d 946d 92bc 82b5 febc 5da0 e5bc
000002e0: aee9 433d bcde 32bc 7832 50bc 66ff 183d
000002f0: e45c 4e3d fc6b 13bd 8efb f23c 4d5f 353d
00000300: 558f 0e3d 99fa 8fbc 1cdb 1dbd 2999 debc
00000310: deaa 84bc ece4 41bc f1c6 8b3d 4c89 c5bc
00000320: 53f0 e6bc 540a 333d 71b1 0c3d 2ef0 633d
00000330: a52f 533d f8a0 11bd 08d4 3ebd c808 133d
00000340: b3b6 893d 7212 403d aedb 2b3d 841c 483d
00000350: 1cb3 9f3d 2bf1 443d 68bd 8c3d 63a6 36bd
00000360: 5097 2dbc b852 92bc ded1 1bbd 01ad 4cbd
00000370: cd4f c8bc e575 773d 48cd e73c 81a5 1e3d
00000380: 9db4 513d 63e8 4abd 290a 5ebc fa83 13bd
00000390: 7b59 cabc 285e 4abc 9369 febc a607 283d
000003a0: 5bb8 3f3d e95b 903d ef4d aabc bfb3 06bd
000003b0: e36a 3f3d 356a 07bd a463 183d b25d 473d
000003c0: 1518 48bd 7878 4c3d 71db 08bd bc51 e9bb
000003d0: 7aa0 0b3d e0af 33bd ceb2 953c 2a7a 493d
000003e0: bbca 383d 7e6e 1f3d 7648 1fbd dd9d 8e3d
000003f0: d292 0f3d 825c e83c 6ab7 613d febc c4bc
0.040251393 -0.012933435 -0.01572958 -0.011762135 0.040138494 0.0856528 0.03049781 -0.04563822
-0.04510531 -0.034789093 -0.019043058 -0.015839152 0.04767215 -0.046665914 0.06281939 -0.022053465
0.08479471 0.04945599 -0.012586244 0.031043263 0.045452423 0.058438618 0.06369006 -0.030855693
0.046447657 -0.038547333 0.06922056 0.046815287 0.05202818 0.057996046 -0.027140243 -0.013441244
-0.02987279 0.039328795 -0.042226747 0.03866019 0.027912416 0.041396923 -0.036348365 -0.035254136
0.08164099 -0.045719463 0.042301673 0.062251654 -0.032874875 0.032083742 0.067169555 0.0490886
-0.013015822 0.046051953 0.043343656 -0.03497506 0.053448237 0.050532576 -0.02950766 0.04281902
0.029420767 0.03977487 -0.030867282 0.032775052 -0.03362047 -0.024643108 0.039506357 -0.032779306
0.054530665 -0.025552403 -0.044588763 -0.04634338 -0.014172569 0.075745724 -0.04284 0.07646632
0.04352958 0.03631893 0.040991336 -0.03693125 0.05166695 0.050859682 -0.03083209 0.042317037
0.053040635 -0.043847766 -0.03869443 0.06137936 0.025829462 0.021819483 -0.044747856 -0.045761712
-0.019818464 -0.03286145 0.05715691 -0.028063716 -0.030597856 -0.017140005 0.045031875 0.032613494
0.046905316 -0.038430776 -0.03851811 0.03670961 0.06789783 -0.031853795 -0.03397333 -0.0105967
-0.012888748 -0.038435943 0.036600295 0.027107446 -0.023942262 0.053840432 0.050805084 0.059729066
-0.047936894 -0.02284821 0.023887841 -0.020861896 -0.033196893 -0.030676635 -0.019599468 0.03866264
0.024045827 -0.039076015 0.057366468 -0.022115959 -0.024917457 0.025007406 -0.019658938 0.041368637
0.05392338 0.038467787 -0.013910666 -0.0073730876 0.05414955 0.04327264 0.018424422 -0.031533375
0.01857261 0.03993726 -0.021605546 -0.027004655 0.039983407 -0.034990825 0.06556147 0.051086996
0.057062753 0.03703344 0.04067347 -0.00031336423 0.050740592 -0.04517378 -0.027832104 0.06159537
0.046378516 0.03129367 0.031082569 -0.050597973 0.05914316 -0.02853819 0.06811251 -0.041731298
-0.014516845 0.026604187 -0.032407105 0.054922096 -0.038959574 -0.04235734 -0.046033256 0.06901067
0.035545267 0.031911604 -0.031853423 0.04471216 0.07150005 -0.02611354 0.044002052 -0.046313886
-0.021521457 0.06492455 -0.02104202 0.06560339 0.043306246 -0.017874517 -0.031092409 -0.028030569
0.047830276 -0.010917362 -0.012707345 0.037352942 0.050381556 -0.035991654 0.029660966 0.04428034
0.03480466 -0.017575549 -0.038539037 -0.027172642 -0.016194757 -0.011834364 0.068250544 -0.02411332
-0.028190767 0.04371102 0.03434891 0.055648975 0.05155911 -0.035553902 -0.046588928 0.035897046
0.067243 0.04689259 0.04195755 0.04885532 0.07797834 0.04808156 0.06872064 -0.044592272
-0.010595158 -0.017861709 -0.03804194 -0.049969677 -0.024452114 0.060415167 0.028296128 0.038732056
0.051197637 -0.049538027 -0.013552227 -0.036014535 -0.02470087 -0.01235155 -0.031056201 0.04102292
0.046806674 0.070487805 -0.020789115 -0.032886263 0.046732794 -0.03306027 0.0372044 0.04867334
-0.04885109 0.049919575 -0.0334124 -0.007120339 0.03408859 -0.0438689 0.018273737 0.04918877
0.045115214 0.038923733 -0.038887464 0.06963704 0.035052128 0.028364424 0.055106558 -0.0240159

model.2.weight f4 [256, 256]
00000000: 410b b9bc 4726 703d 82a2 693d 8085 8fbb
00000010: f544 e2be 6e8e a33d dc6a f93d f0ff dfbb
00000020: da85 753d 148a 02bd 1887 d0bc e81e 1cbc
00000030: 9cfe 96bd f227 71bd d4a2 e23d c0e9 60bd
00000040: de98 09be cc62 803e 40bb 11bc 60e7 ccbd
00000050: 19f8 ecbe 1531 9bbd e2a3 2fbd 4813 443c
00000060: 7f31 aa3d 7453 a73c 98d0 5fbe f71f bcbc
00000070: 4c33 443e e6c3 7ebe 18e7 12bc d524 62bd
00000080: 70c8 50bc bdd7 95be ce15 7bbd c5fd 843e
00000090: 562a 683e 5c92 58be 88a7 afbc 68a4 fdbc
000000a0: 5667 cd3d 2c0a ed3c c4fb 65be 53fb 8d3d
000000b0: 7eaa 0fbd e991 97be 0071 eb3d ae09 353e
000000c0: 302f c93b 51d0 8cbd 8731 093e b84d de3c
000000d0: 46b0 453e 8cd8 2c3e 6c84 18bd 150d 99bc
000000e0: 2986 44be b9f4 c33e 6a33 49bd 00ec 79be
000000f0: 703e 753d c8fc 91bc 588e 14be 70cd 85bc
00000100: e060 91bd ba6d 6f3d 082f 5c3d e05d 67bd
00000110: fa7a 353d 037d 713e c282 523d 59e8 2a3e
00000120: 04ad 903d e2a8 403e aada 773e 8087 003b
00000130: 158d 813d 33b2 773d 5aa8 7cbd b4ad 8c3d
00000140: 93e4 0c3e a05e 283b e842 0fbd 8a6a 0a3e
00000150: 70e3 a53e 1047 c3bd 902a f83b a6c6 493d
00000160: 287a 733c 50be 443c fdbf d8bd 8006 8ebb
00000170: ae9e 66bd 1277 553d 2cf6 58be 45fc 8a3d
00000180: 28b9 6c3e fc3d af3c a032 cabc c590 c73e
00000190: 35bb a5be c46c 4d3d 5056 7b3d 62ff 84bd
000001a0: 0ac9 2bbd f8c2 7bbd 06fe 0f3e d200 1abe
000001b0: 1c84 bc3c dcd3 a5be 0363 643e ea20 7d3e
000001c0: e057 58bc 84d8 e23c 8fc2 55bf 4a56 473d
000001d0: 54b8 353d be88 213d 2496 d03c 9e6a e13e
000001e0: ae40 cbbe 98cf 8f3c 68d0 80bc ac0b 6e3d
000001f0: 2c2a dc3c 097a 4c3e b087 5fbc fd89 3fbe
00000200: 8937 4ebe a0b2 1bbd 3f6a adbc 03df 973d
00000210: 60bf 443e 6503 d83d 8441 523e 80ab db3a
00000220: 0e77 99be d9e0 d73d 6084 e0bc 7eee 263d
00000230: 0ff8 49bd c4da 333d 9a82 813e 8204 2a3d
00000240: 1e77 9d3e 9681 543c 000d 8c3e b307 2abf
00000250: 1748 f0bd 10fb bf3c aa71 263d 05da 873d
00000260: c955 edbd 3b9e 8b3e 7af5 2d3d c081 523c
00000270: bb91 6cbe 74e6 fabc 3afc 343c 208f c43c
00000280: 00ce 0dbb 7375 a2be f283 1ebd f3b3 833d
00000290: 7888 68bd b8ef 01bc 3ca1 bcbc 9ef8 e63d
000002a0: 894b c13d ae01 5c3e 4cf1 4fbd c323 65be
000002b0: 7a63 4b3e f89b 46bd 85bb 2e3d 2833 18bc
000002c0: f802 1bbd a7b0 693e 2c62 d33c 55d5 0b3e
000002d0: b1e9 2cbe e8fc 9f3c 0038 723b 3cc6 3abd
000002e0: 8c83 c93d f0c4 923b d850 c93c 510d 843e
000002f0: 26aa 863e 5453 793d 9622 df3c 12cc e93e
00000300: b99b 843e eb90 0abd 28cf 863c 6855 77bc
00000310: d428 593d abee 11bc f0cf c83d ec7b ba3c
00000320: d89a a4bc 97b4 60be 5d77 193e 2a9b bebd
00000330: 5934 8fbe f0b2 cabb a40a c7bc d452 d8be
00000340: 535e 463d 3903 cbbd d46b 8ebe 8d34 553e
00000350: a506 5f3d 1a97 d43d 66b3 22be b6ed 14bd
00000360: 4762 34bd 54b3 213d 20db 94bc d8a4 b5bc
00000370: 62d4 42bd 5300 b0bc 6821 36bf d74a 223e
00000380: 39bb 8fbe de28 1e3d a1ee aebc bc85 24bd
00000390: a4fb dfbc 0449 1bbd fcd3 42bd d759 313e
000003a0: b348 f1bc 06ee 013e 2cdf 98bc 821c 243d
000003b0: 3ffb 153e 8aad 40bd 2478 a23c 8584 833e
000003c0: a684 6cbd 2a15 7dbe 0094 2eb9 1c1f 42bd
000003d0: 2aec ddbe a4e6 593d 60c0 a9bf 2cfa 1c3e
000003e0: 490b b83e 26fe be3d 22a4 54bd f3a1 39bd
000003f0: 895d 593e 1a42 013e 6cf1 e53d 7087 f6bc
-0.022588374 0.058630254 0.057039745 -0.004379928 -0.44193235 0.07986151 0.12178585 -0.00683593
0.059942104 -0.031869963 -0.025455043 -0.009528853 -0.07372782 -0.058875985 0.11066213 -0.05491042
-0.1343722 0.25075376 -0.008894742 -0.10005069 -0.46283033 -0.07577721 -0.0428809 0.011967488
0.08310222 0.020425536 -0.21856916 -0.02296446 0.19160193 -0.24879417 -0.00896623 -0.055210907
-0.0127431005 -0.29266158 -0.06130009 0.2597486 0.226724 -0.21149582 -0.02144219 -0.030962184
0.100294754 0.028935514 -0.22459322 0.06932702 -0.035074703 -0.29603508 0.114961624 0.17679474
0.0061396584 -0.06875671 0.133978 0.027136669 0.19305524 0.16879481 -0.037235662 -0.018682996
-0.19191803 0.38272646 -0.049121298 -0.24406433 0.059874 -0.01782073 -0.14507425 -0.016333312
-0.070985556 0.058454253 0.05375579 -0.05648601 0.044306733 0.23582844 0.05139423 0.16690196
0.0706425 0.18814424 0.24204507 0.0019612014 0.063257374 0.06047268 -0.06168399 0.06869069
0.13759069 0.0025691167 -0.034975916 0.13517204 0.32400084 -0.095350385 0.007573433 0.04926171
0.014860667 0.012008265 -0.10583494 -0.004334271 -0.056303672 0.052115507 -0.21187657 0.06786398
0.23117507 0.021391861 -0.024682343 0.38977638 -0.3236939 0.050152555 0.06136161 -0.06494023
-0.041939773 -0.061465234 0.14061746 -0.15039375 0.023012213 -0.32388198 0.22303395 0.24719587
-0.013204545 0.027691133 -0.835 0.048666276 0.044365242 0.039437048 0.025462218 0.44026655
-0.39697784 0.017555043 -0.015724376 0.0581166 0.026875578 0.19968428 -0.01364319 -0.18704982
-0.20138372 -0.038012147 -0.021168826 0.07415583 0.19213629 0.105475225 0.20532805 0.0016759485
-0.29973644 0.10540933 -0.027406871 0.040754788 -0.049308833 0.043909803 0.25294954 0.041508205
0.30754942 0.012970349 0.27353668 -0.66418 -0.117325 0.023435146 0.040635742 0.06633381
-0.11588628 0.27269158 0.042470433 0.012848318 -0.23102467 -0.030627467 0.011046464 0.023994029
-0.0021637678 -0.31730232 -0.03870005 0.06430807 -0.05677077 -0.007930689 -0.023026101 0.11277889
0.09438235 0.21485016 -0.050767228 -0.22376923 0.19862166 -0.048488587 0.0426593 -0.00928954
-0.037844628 0.22821294 0.025803648 0.13655598 -0.16886021 0.019529775 0.0036959648 -0.045599207
0.09839544 0.004479043 0.024574682 0.2579141 0.26301688 0.060870484 0.027238172 0.45663506
0.25900057 -0.03382961 0.016456202 -0.015096046 0.053017452 -0.0089070005 0.09805286 0.022764169
-0.020093367 -0.2194389 0.1498694 -0.09306939 -0.27969626 -0.006185882 -0.024297066 -0.42250693
0.0484298 -0.09912724 -0.2781664 0.20820828 0.054449696 0.10380383 -0.15888748 -0.03635951
-0.044039037 0.03947766 -0.018170893 -0.02217333 -0.047565825 -0.02148453 -0.71144724 0.15848862
-0.28072527 0.038613193 -0.021354022 -0.0401666 -0.027341671 -0.03791143 -0.047565445 0.17319427
-0.029453611 0.12688455 -0.018661104 0.04006625 0.14646624 -0.0470405 0.019832678 0.25687042
-0.05774369 -0.24715105 -0.00016649067 -0.04739295 -0.4334424 0.05319847 -1.3261833 0.15329808
0.3594611 0.09325819 -0.05191434 -0.045320462 0.21227087 0.12622872 0.11227688 -0.030093879

model.2.bias f4 [256]
00000000: 17eb d63d 6c2a 4e3d 4e2c a73d 31b4 05bd
00000010: 0e88 3cbc 0ce2 cd3c fd71 853d 8c6d 7abd
00000020: 55e9 c13c fc3b 5d3d 0554 b13d 3412 a93d
00000030: 830a babc e754 72bd 9e43 24bd 7be0 1a3d
00000040: 6779 c63c aab3 9d3d bc75 27bd 0954 26bd
00000050: b046 0ebc 96e9 913d bc8d 05bd d90e 40bd
00000060: eb2a 35bd a3e9 f73c 3f42 123d 5f0e a53d
00000070: de29 503d aab9 1b3c 519d 8dbd c6e3 803d
00000080: e0b4 ba3d 988d cf3b 41af e6bc 960e 423d
00000090: 5eb8 37bd cc9c 3fbd 6241 713c f4ed 23bd
000000a0: a266 7bbd e2dc 1cbc 9bc4 a3bd 6635 8e3c
000000b0: c8bd 4cbc 9861 393d 3efd ba3d e98a c13d
000000c0: 2847 983d c290 af3c 36ab d43d 700e 5a3c
000000d0: ee84 023c 34a0 703d 1263 e43d 47ee 183e
000000e0: 52da 0dbd 1a18 d03d fc37 053d f823 483d
000000f0: 84d6 6cbd 3e99 68bd e8c0 f5bc 417a 76bd
00000100: 90da e23d eb69 863c 54eb b0bc b441 623e
00000110: 1f77 cb3c 3e3e 91bc 8b13 b1bc f953 853d
00000120: b2e2 74bd b956 dd3d b00e 30bd 80eb 2abd
00000130: e8dd 3ebd 91c3 3c3c 3847 193e 0435 90bc
00000140: bcaa 723d d5e8 07bd ea3b 33bd 484f 6e3d
00000150: ca46 7a3d 37c7 8abb 91e9 953d ae61 24bd
00000160: 645e aabc 1ec4 0dbd 3bd7 cb3d 04a6 b43d
00000170: e566 05bc 302d 84bb 9ee4 7ebd 205e 3bbd
00000180: 2275 00bc 3e93 a23d e2bc 7a3d f680 21bc
00000190: 874f 8d3d 3689 953d ac8a 033e 724b e93d
000001a0: d4c8 2e3d dc55 b93d 36ea 843d 333c 033e
000001b0: 2d00 b33d 21f4 243d 2acd 14bd c0ae b33d
000001c0: 020b 603d ac5b 943d 305c 04bd 65cc 5b3d
000001d0: 40f5 b23d 2f25 fb3d e140 243d d0e0 f73d
000001e0: 4ed9 ee3d 24c3 543c 1e0f 87bd c2e7 5bbd
000001f0: f887 693d 5bc2 71bd 1d79 c53a bd67 873d
00000200: b94a c8bb 782f f0bc db2c 163d f09e c53c
00000210: de31 143d 38c6 b0bc 8946 7ebc 90a9 8b3d
00000220: 41a6 c13d bc5c 4e3c 5df7 5cbd 00ee 51bd
00000230: 7541 30bd 692f c43d a05d 62bd df82 953d
00000240: 24bf 2ebd 1ec3 c4bb da43 01bd a0b9 7fbb
00000250: b6d4 7dbd a638 cf3d 7882 803d 041a 6f3d
00000260: 5d88 5d3d 6d0b a03d a079 d43d eca5 58bd
00000270: 8fdf 8dbc 0b5e 733d 11c9 7bbd 6425 933c
00000280: 18fe 093e a6a2 20bd bb56 4a3c 4dcc 683d
00000290: 46ab 78bd dce5 e73d 3a3f 0fbd 008a 9a3c
000002a0: 952e 8fbc 762f c7bc 5e28 043c 4bdb ab3d
000002b0: a00a f0bb 5d2f 8ebc f888 46bd 1a1f 7abc
000002c0: 39e0 8e3d 9d5f 4f3d ebc6 38bc e0fb 123e
000002d0: bd65 833d d2ae 0e3e e332 573d 39b2 803d
000002e0: fb6b 9dbc 53b9 a03d 7c8e 05bd ea4a 013d
000002f0: 5d01 13bc c8a5 00bd b906 f33c 83f3 1b3d
00000300: b2fe 73bd b265 b43d c4e0 943d b0cc 94bd
00000310: b622 52bd d060 753d 825f 9f3d 0aa2 ba3c
00000320: 5aa0 c23d f18f 753d 2868 413d 0530 053e
00000330: bfcb c03d 969a 15bd ce84 923d bda6 92bc
00000340: 5b99 863d 9457 50bd e2a9 5abd 8062 eebc
00000350: aa81 0a3d f18d e63d 3020 3bbc 84b7 32bd
00000360: 6648 08bd 0c2a a43d 2800 6abd 9ea1 6a3d
00000370: e458 5fbd 0953 d13b 4bfa b03d 827a 1b3a
00000380: 3ce1 03bd d98d e73d 9baa 3abd 542b c43d
00000390: ca20 37bd f640 a7bc 9ac4 0f3e b865 0b3e
000003a0: f0bb 0a3e 5c0d db3d 041a 82bd a966 be3b
000003b0: 08a0 40bc 91ad 1cbc c909 6abd f5e7 34bd
000003c0: 45f3 053e 941e bf3d 5ba3 a6bc 32fd 58bd
000003d0: 4c32 82bc eee6 7a3d 2f2f 913c b574 8dbb
000003e0: 21c0 fd3d 2c5d 36bd 9091 913b 4d0b 603d
000003f0: 20cc bfbb 9e27 91ba ef9e dabc b6a1 05bd
0.104940586 0.050333425 0.08162747 -0.032642547 -0.011507047 0.025132202 0.06515882 -0.06113963
0.023670832 0.054012284 0.086586036 0.08255425 -0.02271009 -0.059163 -0.040103547 0.037811738
0.024227811 0.07700284 -0.040883765 -0.040607486 -0.008683845 0.07124631 -0.03260587 -0.04688916
-0.044230383 0.030262774 0.03570771 0.08059382 0.050821178 0.009504715 -0.06914771 0.06293444
0.091165304 0.006334018 -0.02815974 0.04737719 -0.04485356 -0.046780393 0.014725061 -0.04002185
-0.061377175 -0.009574147 -0.07996484 0.017359447 -0.012496419 0.04525909 0.09130333 0.09450323
0.07435447 0.02143133 0.103842184 0.013309106 0.007966263 0.05874653 0.11151709 0.14934646
-0.034632035 0.10160847 0.032524094 0.048862427 -0.057821766 -0.05678677 -0.029999211 -0.060175184
0.11076844 0.016407927 -0.021596588 0.22095376 0.024837075 -0.017729875 -0.021615764 0.06510157
-0.059786506 0.10807557 -0.042982757 -0.041728497 -0.046598345 0.011521236 0.14968574 -0.017603405
0.059244856 -0.03318103 -0.04375831 0.058181077 0.061102666 -0.004235174 0.0731994 -0.040132217
-0.020796962 -0.03461086 0.09953161 0.088207275 -0.008142208 -0.004033707 -0.062229745 -0.04574406
-0.007840427 0.079382405 0.06121529 -0.009857407 0.06899934 0.073015615 0.12845868 0.11391343
0.042671993 0.090495795 0.06489985 0.12815933 0.08740268 0.040271882 -0.036328472 0.08773565
0.054697998 0.072440475 -0.03231448 0.053661723 0.08738184 0.122629516 0.040100936 0.121034265
0.11662541 0.012985978 -0.0659468 -0.05368782 0.057014436 -0.059023242 0.0015066002 0.066115834
-0.0061124233 -0.02931951 0.03666387 0.024123639 0.03618037 -0.021578893 -0.015519747 0.06819451
0.094555385 0.012595352 -0.05394684 -0.051252365 -0.043031175 0.09579355 -0.05526507 0.07300352
-0.042662755 -0.006004705 -0.03155885 -0.0039020553 -0.061970435 0.10118227 0.06274885 0.05837442
0.054085124 0.07814679 0.10374761 -0.05289261 -0.017318515 0.05941586 -0.06147105 0.017962165
0.13475835 -0.039217614 0.01234978 0.05683546 -0.060710214 0.11323139 -0.034972407 0.018864632
-0.017478267 -0.024314623 0.008066265 0.08391436 -0.0073254853 -0.017356569 -0.048470467 -0.015266204
0.06976361 0.050628293 -0.0112778945 0.14353895 0.064158894 0.13933876 0.052538764 0.06283993
-0.019216528 0.07847848 -0.032606587 0.031565584 -0.008972493 -0.0314081 0.029666292 0.038074028
-0.05956907 0.08808459 0.07269433 -0.072656035 -0.051302634 0.05990678 0.077818885 0.022782344
0.09503241 0.059951726 0.04721847 0.13006599 0.094138615 -0.036524378 0.07154237 -0.017901773
0.06572219 -0.05086477 -0.05338467 -0.029099703 0.033815064 0.11257542 -0.011421248 -0.043632045
-0.03327217 0.08015832 -0.057129055 0.057283036 -0.054528132 0.0063880724 0.086414896 0.0005931036
-0.032197222 0.11306352 -0.04557286 0.09578577 -0.044709004 -0.020416718 0.14039841 0.13613021
0.13548255 0.106959075 -0.06352618 0.005810578 -0.011756904 -0.009562866 -0.057138238 -0.044166524
0.13081081 0.09332004 -0.020341566 -0.05297584 -0.015893124 0.061255388 0.017722694 -0.004316891
0.12390161 -0.04452245 0.004442401 0.054698277 -0.005853191 -0.0011074429 -0.026687114 -0.032624923

model.4.weight f4 [9, 256]
00000000: 0949 5cbd 4c32 3a3e 1cae e0be 6589 073c
00000010: 54bc 193e 3e01 e83d b948 043e f45c 7fbd
00000020: bfd8 c0be 18ca 7dbe 60fa acbc 18e6 f83e
00000030: 6322 9fbb d87c 4abd 05b3 20bd daa1 e33d
00000040: 303e 123e cb18 cabe b414 763d 4f74 1bbd
00000050: 00d7 1f3a f733 b9bd 90f7 e93b 6b3a dbbc
00000060: c1d8 6e3e ccc3 783e 5501 93be 4853 473e
00000070: 5168 913c 2d07 5c3e 6d11 bebc 2bf6 913e
00000080: 26b9 06bf e002 9abe be64 c1bc 6cce e13d
00000090: 942f 9a3c 8c42 713d 3a82 a5bc 107f f23c
000000a0: ca86 0bbd d8f9 be3d cf6c 473d 83db 493d
000000b0: 485b 093d 7079 5d3c 6ab7 813e 506c a8be
000000c0: 6487 f73e 0d33 e43d 2c51 fe3d c035 32bb
000000d0: bd16 2b3d d11b 5bbe 0ca9 f1be 3df1 d5be
000000e0: 5034 26bd 5de1 b13c 12ba 413e 361e 5d3e
000000f0: a08d 1b3b b0af e5bb bf5f 63bd 91fb 0d3e
00000100: e0bb 5cbc a824 493d 3dff 7cbd 7f6e 6bbe
00000110: 7a72 c73d 6d41 73bd d8bc 4fbd d09a e03d
00000120: 645a 0ebd ac6a aebe 1835 a73c 404b f63a
00000130: c0d4 4fbb fe21 5e3e f994 babe c082 84bb
00000140: f5c7 ed3e 0ef0 8c3c 5093 d53b 3d69 0bbf
00000150: 95d0 ddbe f0d5 2a3e 0ae5 723e 6052 ae3b
00000160: 8a25 3ebd f8ae 7cbb bfce 443e fd22 8a3e
00000170: 12d4 ebbc 9f4b 7f3d 12c8 7c3d ae8c 3fbd
00000180: 304f 1d3e f705 5fbc 807a 37be aac8 31bb
00000190: 84df 37be bdd2 593d 0624 dbbe 2dff 943c
000001a0: b7c1 58be f271 823c c701 f2be 98d6 2cbf
000001b0: 6408 b1be b676 603e 0018 2cbb 8161 2d3e
000001c0: c4d6 713e 3b86 51bf d7fd 3e3e 75ee ae3d
000001d0: 7c8c d73e f00b 65be 09cc e23e 89df debe
000001e0: cd2f 92be 89b7 9dbd b6b8 f63c a4e0 30bd
000001f0: fd18 92bd 5f53 42bd 1013 6d3b 817f 1c3e
00000200: a99f 863c 46c1 473d aa1d 6b3d a308 41bd
00000210: 1e58 123e 4608 04bd 562f 7dbd 73cc cfbe
00000220: fe94 fa3c ecc3 873d 3206 d7bc c40d a2bc
00000230: af65 b8bd 28fa 83be 4c3c e33c f2bb 91be
00000240: 1c0d 01bd 56a9 37be f6fd 40bd 01b7 0c3f
00000250: 58e7 39bc 5e2c 4bbe 4e6f 0e3e 6367 f73e
00000260: dffc 43be 4e0d 003e 9e38 92be 1085 e8bc
00000270: 1b24 0bbd 2727 463e f2c9 1bbe b0b8 503e
00000280: 2cf2 4d3e 623c 2d3d 931e 903b ed6e 68be
00000290: 90e3 f53c 05a6 bebe 9243 84bd a760 b03e
000002a0: 4dc9 873c e5e2 a8bd 82ad 37be 9391 3e3e
000002b0: c7de 0c3e bc6c 7dbd b080 4cbc 1dcf 593e
000002c0: f1f2 d8bd 162a 443e cdaa 203d 8ce8 f33d
000002d0: 37a2 d3bc 8fcc 58bd 41a4 afbd f905 05bf
000002e0: 0745 4d3d 3a8c d93d aecf b73e 264d 3dbe
000002f0: e5ca 29bc 40f5 553b 9db5 433e 79c6 5abe
00000300: 4896 dfbc 6efe 83be d3d9 073e 770f 81bd
00000310: 28e3 60bc 3fcc fb3d d539 0fbe 2e02 f63d
00000320: 6d3e 95bd 0bf1 0abf 169f 543e b845 e5be
00000330: feca eb3c cdf9 303d 4398 153c 719d 233c
00000340: 1d58 283e 2ea8 0fbd 3c4e 7d3d 97e3 22bd
00000350: c478 8a3e 4794 80be ae33 1e3d 4ca7 28bd
00000360: 0245 33bd 7024 91be 44cd af3b c403 f93d
00000370: 90a9 783d c2df 7c3e bdcd df3d f119 d03c
00000380: 1a46 033d 1a65 cc3a 7f00 0b3d 5204 e1be
00000390: 2ece 373d 3bb4 873e a438 b5be 5ea3 473e
000003a0: 7641 27be 756f 3e3d 8c43 473d 3d47 203e
000003b0: c21f 643d beed edbc 0cd6 17bc fa48 333d
000003c0: 65e7 dabe 97eb 45be f312 4fbc 0079 9e3a
000003d0: d0f5 4c3d 869a 3ebe 24d8 fd3d 4229 563d
000003e0: 91e6 49bc 7ccb 7f3d 650c b4be 1448 ab3e
000003f0: 8488 e5bc fb64 08bd e73a 46bd 0463 96bc
-0.05378059 0.18183249 -0.43882835 0.0082725035 0.15013248 0.11328362 0.12918366 -0.062344506
-0.37665364 -0.24784124 -0.021115482 0.48613048 -0.004856394 -0.049435467 -0.039233226 0.11114855
0.14281535 -0.3947204 0.060078338 -0.037952717 0.0006097406 -0.09043115 0.0071401075 -0.026761254
0.23324873 0.2429344 -0.28711954 0.19465363 0.017749937 0.21487112 -0.023201669 0.28508124
-0.52626264 -0.30080318 -0.023607608 0.110257 0.018821515 0.058901355 -0.020203698 0.029601604
-0.03406409 0.09324998 0.048687752 0.04928161 0.03353432 0.0135177225 0.25335246 -0.32895136
0.48345482 0.1114255 0.12417826 -0.0027192682 0.04176973 -0.2139733 -0.47199285 -0.41785613
-0.040577233 0.021713907 0.18918636 0.21593556 0.0023735538 -0.007009469 -0.055511232 0.13865496
-0.013472527 0.049107224 -0.06176685 -0.2299137 0.097386315 -0.059388567 -0.050717205 0.10967028
-0.034754172 -0.3406576 0.02041106 0.0018790737 -0.0031712502 0.21692654 -0.36441782 -0.004043907
0.46441618 0.01720431 0.006517805 -0.54457456 -0.43323198 0.16683173 0.23720184 0.0053198785
-0.04642252 -0.0038556438 0.19219492 0.2697982 -0.028787646 0.062327977 0.06171424 -0.046765022
0.15362239 -0.013612262 -0.17917824 -0.0027127662 -0.17956358 0.05317949 -0.4280092 0.018188084
-0.21167646 0.015923474 -0.4726698 -0.67514944 -0.34576714 0.21920285 -0.0026259422 0.16931726
0.23617083 -0.81845444 0.1865152 0.08541576 0.4209937 -0.22367835 0.4429629 -0.4352992
-0.28552094 -0.07701022 0.030117374 -0.043182984 -0.071336724 -0.04744279 0.0036174692 0.15283014
0.016433554 0.048768304 0.057401337 -0.047127377 0.14291427 -0.032234453 -0.06181272 -0.4058567
0.030588623 0.06629166 -0.026248071 -0.019781955 -0.090037696 -0.25776792 0.027738713 -0.28463703
-0.031506643 -0.1793569 -0.047117196 0.5496674 -0.011346661 -0.19841143 0.13909647 0.48321065
-0.19139431 0.12505075 -0.2855882 -0.028383762 -0.03396998 0.19350873 -0.15213755 0.20382953
0.20111912 0.042293914 0.004398176 -0.22698565 0.030015737 -0.37236038 -0.064582005 0.3444874
0.01657548 -0.08246402 -0.17937282 0.1861022 0.13756858 -0.061871275 -0.012481853 0.21270414
-0.105932124 0.1915668 0.03922539 0.11909589 -0.025834186 -0.052929457 -0.08576251 -0.5196224
0.050114658 0.10622449 0.35900635 -0.18486461 -0.010363315 0.00326474 0.19112249 -0.21364774
-0.02729334 -0.25780052 0.13266687 -0.06301778 -0.013726033 0.12294816 -0.13986905 0.120121345
-0.072872974 -0.5427405 0.20763811 -0.44779754 0.028783318 0.04320698 0.00913054 0.009986267
0.16439863 -0.035072498 0.06184219 -0.039767828 0.27045262 -0.25113127 0.038623504 -0.04117517
-0.043766983 -0.28348112 0.0053650457 0.12158921 0.060708582 0.24694732 0.10927913 0.025402995
0.032049276 0.0015594095 0.03393602 -0.4394861 0.044874363 0.26504692 -0.35394776 0.19495913
-0.16333565 0.046493012 0.048648402 0.15652175 0.05569435 -0.029044028 -0.009267341 0.043770768
-0.42754665 -0.19328152 -0.012638795 0.0012090504 0.050039113 -0.18613634 0.12394741 0.05228544
-0.012323038 0.062449917 -0.35165706 0.3345343 -0.028019197 -0.033299427 -0.048396017 -0.018357761

model.4.bias f4 [9]
00000000: 6981 433c d9d3 82bd b4cb 843d 0a81 b0bc
00000010: b3bd 033d 42bb aa3c 93dd 253d 9ffc 4f3d
00000020: a479 783d
0.011932709 -0.06388063 0.06484166 -0.021545906 0.032163333 0.020841245 0.040494513 0.050778028
0.06066288
