scripts/trained_classifiers/nn_dinov2_weighted.pth (torch, 669430 bytes, 6 tensors)

model.0.weight f4 [256, 384]
000000 7d 20 3f bd b2 f6 bb bc 7c 8d 48 bc 18 bb 01 bd
       -0.046661843 -0.022944782 -0.012240764 -0.031672567
000010 29 77 46 bd d8 3e 83 3b a8 65 2b 3c f8 aa 9d 3c
       -0.048453484 0.0040052943 0.010461248 0.019246563
000020 26 f6 4e 3d 78 5e 79 bc 20 0d 16 3c 6c 83 2e bc
       0.050527714 -0.015220277 0.009158403 -0.010651451
000030 3c 22 0b bc 10 42 04 3b 6c c6 bb 3c 08 9b 08 bc
       -0.008492049 0.0020180978 0.022921763 -0.008337744
000040 06 3b e7 bc bc 46 20 bc 3f 60 3b bd fd 30 42 bd
       -0.028226387 -0.009782489 -0.045746084 -0.04741
000050 d9 5d ec bc 88 a6 8b bc df eb f4 bc 48 c1 6f bc
       -0.028853344 -0.017047182 -0.029897628 -0.014633484
000060 e5 c4 45 bd 8a 9c 07 bd 40 de 20 3d 08 89 a2 3b
       -0.048283476 -0.03310827 0.039274454 0.004960183
000070 3c 01 31 3c 78 6b 0a 3c 40 e3 18 ba a0 b0 99 bc
       0.010803517 0.008448474 -0.0005832203 -0.01876098
000080 20 4e a8 3a d4 de 0a bc b0 bf 59 3c e7 d5 e6 bc
       0.0012840666 -0.008475978 0.013290331 -0.028178168
000090 40 dd 5d 3b 54 04 a8 bc 91 48 ad bc ad 97 c5 bc
       0.00338538 -0.020509876 -0.021152766 -0.024120176
0000a0 96 1a e9 bc 6c 0d 10 3d 40 f1 a7 3b ba 02 35 3d
       -0.02845506 0.03516905 0.005125195 0.044192053
0000b0 58 ba e5 3c ea 53 00 bd f8 44 97 bb 4c 95 4c 3d
       0.028042957 -0.031330027 -0.004616376 0.049947068
0000c0 20 c1 0d 3d 68 68 21 3d 00 fe e5 3a 4c 5a 4f 3d
       0.034608006 0.03940621 0.0017547011 0.050623223
0000d0 60 a9 19 3c 60 e9 a3 3c 58 ae cf 3c 00 4f b0 bc
       0.009378761 0.020008743 0.025351688 -0.021522045
0000e0 b0 e6 ec bc bc 87 c6 3c 78 03 5c 3c 18 32 4a 3c
       -0.028918594 0.024234645 0.013428561 0.012341045
0000f0 60 b6 d0 3b 90 09 48 3c 80 11 56 3c 13 9c c5 bc
       0.006369397 0.012209311 0.013065696 -0.024122274
000100 58 72 48 bc c6 35 1e 3d f8 5f 5e 3c ce 00 25 3d
       -0.012234293 0.0386255 0.013572685 0.04028397
000110 a6 a5 83 bc 4f 9c c8 bc 6c a5 b1 3c fc e5 3c bc
       -0.016070198 -0.024488596 0.021685325 -0.011529442
000120 10 cd 28 3c f0 ab b9 3c 58 b3 03 bc dc f6 db 3c
       0.010302797 0.022664994 -0.008038364 0.02685111
000130 73 ba 16 bd 22 fe 1d 3d 86 00 0b 3d 94 db 2a bc
       -0.036798906 0.038572438 0.033936046 -0.010428328
000140 86 ec 31 bd 99 18 41 bd 2a 78 1e bd e3 39 f9 bc
       -0.043438457 -0.0471426 -0.038688816 -0.03042311
000150 c0 37 63 ba bf 20 d7 bc de ca 3d 3d 58 58 f5 3c
       -0.000866767 -0.026260732 0.046336047 0.029949352
000160 dc 8a a3 bc 60 c8 48 bb 58 4c bf bb 10 7c 17 3d
       -0.019963674 -0.003063701 -0.0058379583 0.03698355
000170 d6 6f 05 bd 24 6d 97 3c 50 1d 9c 3b 60 c9 2a 3d
       -0.03257736 0.01848466 0.0047642365 0.041695952
000180 2c 5b d8 3c 20 9c 8a 3c 50 63 04 3c 56 ca 03 bd
       0.026410662 0.01692015 0.008080319 -0.032175384
000190 31 cb 0e bd d8 d0 3c 3c 90 8c 0e bd 26 8c 27 3d
       -0.034861747 0.011524402 -0.03480202 0.04090514
0001a0 fb 32 a9 bc 40 0e 22 ba f4 0a b0 3c 64 01 87 3c
       -0.020654192 -0.0006181933 0.021489598 0.016480155
0001b0 78 2e 12 3c c9 bc fc bc 0c f1 b4 3c 4c 6a 2b 3d
       0.008922212 -0.030851739 0.022087596 0.04184942
0001c0 d0 75 b4 3c f0 2f 95 3c 67 1e 12 bd 71 27 1f bd
       0.022028834 0.018211335 -0.035673525 -0.038855974
0001d0 c7 0e da bc b0 4a 14 3d b0 af 05 3c 50 a2 41 bb
       -0.026618375 0.03620404 0.008159563 -0.0029546209
0001e0 15 f1 ce bc 55 f4 08 bd 40 01 b5 bb 4c 2a 45 3d
       -0.025261441 -0.03343614 -0.0055238307 0.04813604
0001f0 6a f2 a3 bc 9e 0f 4c 3d e6 a3 08 3d 80 64 d8 3b
       -0.020013053 0.04981958 0.03335943 0.0066037774
000200 1a 76 1b 3d 93 1f fc bc 2c 29 73 bc c6 99 42 bd
       0.037954427 -0.030776775 -0.014841359 -0.04750993
000210 4e 2c b7 bc 7a 36 43 3d c0 3a 27 bc bc e9 ed bc
       -0.022359993 0.047659375 -0.010206878 -0.029042117
000220 d6 27 3c 3d 23 7c fe bc b4 cc a0 3c 48 dd 04 3d
       0.045936428 -0.031065052 0.01962886 0.032437593
000230 f8 16 65 3c 6c c4 2a 3c 90 90 36 3d 15 a7 af bc
       0.013982527 0.010422807 0.04457146 -0.021441976
000240 a8 f5 3d 3d 8c da 07 bd 78 23 49 3d b8 55 88 bb
       0.046376854 -0.033167407 0.04910609 -0.004160609
000250 23 87 eb bc f7 9e b6 bc 88 12 35 3c 97 71 ab bc
       -0.028750962 -0.022292597 0.0110517815 -0.020928187
000260 cd 83 a4 bc 1e 20 35 bd 34 42 45 3d c8 15 38 3c
       -0.020082379 -0.044220082 0.04815884 0.011235662
000270 0c 9e 8a 3c ec 3b 49 3d 60 31 4b 3d 69 94 1e bd
       0.016921066 0.04912941 0.049607635 -0.038715754
000280 18 56 45 bc 80 84 22 bd 40 e1 c2 3c a0 11 7e bb
       -0.012044452 -0.039677143 0.023789048 -0.003876783
000290 63 7f 0b bd 52 31 f7 bc 01 22 03 bd 46 87 23 bd
       -0.034057032 -0.030174885 -0.03201485 -0.03992393
0002a0 15 47 28 bd 3c 83 a0 3c 98 e1 c0 3c dc ba d4 3c
       -0.041083414 0.019593827 0.023545071 0.025968008
0002b0 98 81 ff bb b8 7e 15 bd 3b c8 17 bd d4 d2 e9 3c
       -0.007797431 -0.0364978 -0.03705619 0.028542913
0002c0 eb 1c b8 bc ec 87 38 3d 86 2d 16 3d a4 4b 19 3d
       -0.022474727 0.0450515 0.03666451 0.037425652
0002d0 8a 84 2a bd 26 06 0c 3d a6 42 38 bd f4 1f c2 bc
       -0.041630305 0.03418555 -0.044985436 -0.023696877
0002e0 26 af 4c 3d 00 b3 e8 b9 18 d0 4d bd 60 84 3d 3c
       0.049971722 -0.00044383854 -0.05024728 0.011567205
0002f0 4b bb 03 bd 58 2a ff 3b 06 d9 31 3d dc d5 bf 3c
       -0.03216104 0.00778703 0.04341986 0.023417406
000300 48 4b 25 3d a1 c5 f7 bc e2 7e 12 3d 90 21 db 3c
       0.040354997 -0.030245604 0.035765536 0.026749402
000310 8c e8 39 bd f8 cd 48 bc 60 15 84 3b 92 0c 14 3d
       -0.04538779 -0.012256138 0.0040308684 0.0361448
000320 40 71 cb ba fa ed 3f 3d da a3 e7 bc 06 bf 1d 3d
       -0.0015521422 0.04685781 -0.028276373 0.038512252
000330 e5 d2 0f bd 98 6c a0 3b 46 fe 00 3d c0 69 4b 3a
       -0.035113234 0.004895758 0.031492494 0.00077595934
000340 1c 71 cb 3c 84 c6 0d bd c4 07 4d 3d 6a 71 0c 3d
       0.024834208 -0.034613147 0.050056234 0.034287848
000350 96 b7 17 3d 3c b4 78 bc d0 ca 95 bb 50 87 4b 3d
       0.037040316 -0.01517969 -0.0045712963 0.04968959
000360 e4 1b 09 3d e1 6b f2 bc 3e b9 4a 3d a8 f1 1d 3d
       0.033473864 -0.029592456 0.049493067 0.03856054
000370 c8 fa 0b 3c aa 48 2a 3d 14 dd 8d 3c 88 4d 87 3b
       0.008543678 0.041573204 0.017317332 0.0041291155
000380 a8 ae 4c 3c fc 13 36 bd 05 77 f1 bc a0 7d 84 3a
       0.012492813 -0.044452652 -0.029475698 0.001010824
000390 22 9f 0e 3d f8 93 a8 3b 20 07 0f bd 20 fa 32 3d
       0.03481973 0.0051445924 -0.034918904 0.04369557
0003a0 0c 4b 9b 3c 90 be ed 3c 08 0e 50 bd 6e 71 46 3d
       0.018956684 0.029021531 -0.05079463 0.04844802
0003b0 84 51 71 bc 40 d8 19 3c 34 ae 31 3c 54 4a 43 3d
       -0.0147289075 0.009389937 0.010844756 0.047678307
0003c0 a3 b0 b5 bc 50 c0 15 3d 28 03 9d 3b 00 db dd 3c
       -0.022178954 0.036560357 0.004791636 0.027081966
0003d0 4e 6c 26 3d 50 7d 8e 3c 70 b8 f6 3c 8e 73 20 bd
       0.04063063 0.017393738 0.030117244 -0.0391727
0003e0 a9 33 d0 bc ea d6 44 3d f2 88 24 3d 10 92 3a 3d
       -0.025415258 0.04805652 0.040169664 0.045549452
0003f0 8a 86 07 3d 32 f9 4a 3d c8 70 6e 3c 6b 76 09 bd
       0.03308729 0.049554057 0.014553256 -0.033560198

model.0.bias f4 [256]
000000 b8 ef 32 bd c2 c4 29 bd eb 66 ad bc 80 2a 57 3d
       -0.043685645 -0.04144741 -0.02116724 0.052530766
000010 14 7d 13 bd b0 f1 52 bc 62 66 55 3d 2d 39 f3 bc
       -0.036007956 -0.012875006 0.052099593 -0.02969035
000020 bd 3a 7b 3d bf cf fb 3c e9 45 89 3d 4f 9c b6 bc
       0.061335314 0.03073871 0.067027874 -0.02229133
000030 35 df f9 3c e7 03 fc bc cb 83 31 3d a4 86 3d bd
       0.030501941 -0.03076358 0.04333858 -0.04627098
000040 00 99 16 bd d4 cb 39 3d 08 4f 72 bc 4a 87 f8 3c
       -0.036767006 0.0453604 -0.01478935 0.030337948
000050 2a 5c 4d bd 70 bb 11 bd 73 ff c9 bc 20 4f 33 bd
       -0.050136723 -0.035579145 -0.02465794 -0.04377663
000060 b2 58 40 3d f4 44 37 3d 73 3c b7 3c 2e 34 5d 3d
       0.046959586 0.044743493 0.022367692 0.05400484
000070 32 85 2a bb e5 ee ac bc 1b 7e 22 3d 04 d8 13 bd
       -0.0026019332 -0.021110008 0.039671045 -0.03609468
000080 08 2b 51 bc 38 a0 1e bd eb 29 04 3e cb 1e 8f 3d
       -0.012766607 -0.038727015 0.12906615 0.06988295
000090 22 03 d1 3c f8 32 4c bd d5 3a e6 3c 66 aa 0b 3d
       0.02551419 -0.049853295 0.028104225 0.03409805
0000a0 73 81 8b 3d bd 9d 85 3c c1 3e a7 3d 77 d5 a4 bc
       0.068118 0.016310567 0.08166266 -0.02012132
0000b0 9d 9c 01 3d 5e 46 19 3d 37 63 3f 3d 7e f8 97 bc
       0.0316435 0.037420623 0.046725478 -0.018551107
0000c0 83 6a 32 3d 66 ff df bc 8a f8 ee 3c cc 25 2c 3d
       0.04355861 -0.027343463 0.029171247 0.042028233
0000d0 35 d6 40 3d c8 c0 33 bc 37 f2 26 bd 64 00 6d bc
       0.047079284 -0.010971256 -0.040758338 -0.014465425
0000e0 07 f4 d2 3d 41 09 a7 bc 9c 58 fd bc 2f 33 1b bd
       0.10300451 -0.020390155 -0.030926041 -0.03789061
0000f0 be 76 04 bd ef ba e7 3c 4f 70 7f 3d c0 34 f8 bc
       -0.032339804 0.02828738 0.062362965 -0.03029859
000100 f7 61 ce bc 1a 40 71 bc cf df 34 bd b4 fb 4c bc
       -0.025193198 -0.014724756 -0.044158753 -0.012511183
000110 fc da 2f 3d ea be 98 bc 20 75 e5 3c da fe d3 3c
       0.04293345 -0.018645722 0.028009951 0.025878359
000120 cd f0 5c 3d c0 d4 5c bc 1c 2e dd bb 43 fc 4f bd
       0.053940583 -0.013478458 -0.0067498814 -0.050777685
000130 a0 05 24 3d 11 34 46 bd ac 67 4f 3d 1a 61 31 bd
       0.040044427 -0.0483895 0.05063598 -0.043305494
000140 8b 2d f5 3c d8 a2 74 bc 2e 62 21 3d 16 36 0e bd
       0.029928943 -0.014931403 0.039400272 -0.03471955
000150 a6 df 25 3d 86 22 ff bc f4 3f 10 3d cd 80 22 3d
       0.04049649 -0.031144392 0.03521724 0.039673615
000160 62 4c fa bc 33 be 72 3c da 4f 46 3d a8 0b 96 bb
       -0.030554 0.014815855 0.048415996 -0.0045790263
000170 6a 30 0f bd 8c f8 37 3d 52 4c 3a bd 3a b0 e3 bc
       -0.03495828 0.044914767 -0.04548294 -0.027793992
000180 89 92 47 3d 73 da 25 bd cb 15 d0 3c 57 de ed 3c
       0.04872373 -0.040491533 0.025401017 0.029036684
000190 f2 06 78 3d 25 8c 22 3d 89 a9 1e 3d 7d 74 d7 bc
       0.0605535 0.039684433 0.0387359 -0.026300663
0001a0 08 0c c9 3d 2a f3 16 3d ec 19 a0 bc 3e b9 03 bd
       0.09816748 0.036852993 -0.01954361 -0.032159083
0001b0 b3 71 f3 3c 2a bd 58 3d 24 d0 37 3d 61 71 14 bd
       0.029717302 0.052914776 0.044876233 -0.03624094
0001c0 09 74 40 3d fc d8 01 3d 5a 20 6f 3d 45 8a 52 3d
       0.04698566 0.031701073 0.058380462 0.051401395
0001d0 12 ed e2 bc b9 87 3a bc c3 1b 3b bd cc 3b 97 bc
       -0.027700935 -0.011384898 -0.045680773 -0.01846113
0001e0 db b1 07 bd 4e c1 24 3d 37 7a 83 3d c9 a2 22 bc
       -0.0331286 0.040223412 0.06419795 -0.009926506
0001f0 6c e3 09 bd 46 ee d3 bc 8f 10 5b 3d e0 52 34 bd
       -0.033664152 -0.025870454 0.05348259 -0.04402435
000200 ac 6c fb bc a8 68 4c bd e1 32 33 3d e0 ed 57 3d
       -0.030691467 -0.049904495 0.043749694 0.05271709
000210 7d 50 eb 3c d2 cd 34 bd 94 35 30 3d e2 ec 0f bc
       0.028724903 -0.044141598 0.043019846 -0.008784505
000220 ff 5b 18 3d 32 9b 51 3d 72 58 24 3d ef 20 2e bd
       0.03719711 0.051173396 0.04012341 -0.042511877
000230 c1 5b ed bc c0 ac 2b bc dc 82 64 3d c0 44 48 3d
       -0.028974416 -0.0104781985 0.05578886 0.04889369
000240 3e f4 38 bd 98 23 91 bc 43 c2 3d bd 04 be 44 bd
       -0.045154803 -0.017717168 -0.04632784 -0.048032776
000250 4b 08 fa 3c 88 e8 05 3d e2 08 cc bc b9 6b 54 3d
       0.030521533 0.032692462 -0.02490658 0.051860545
000260 6c e6 49 bd 4c 48 54 3d 30 5b 16 3d 2c 74 2e bd
       -0.049292013 0.05182676 0.036708057 -0.04259126
000270 8a fe 92 bc b2 80 3f 3d 89 6e ea 3c 62 ad 09 3d
       -0.01794364 0.046753593 0.02861716 0.033612616
000280 7f 81 e3 bc 35 2e a0 3c ee 45 30 bd 79 c8 4e 3d
       -0.02777171 0.019553283 -0.04303544 0.050484154
000290 9a f5 89 3d 68 4a 43 bd aa 34 24 bd db dc 19 bd
       0.06736298 -0.04767838 -0.040089287 -0.03756414
0002a0 e2 d7 cf bc 91 a1 8e bc e2 d9 f2 3c 4e 62 45 3d
       -0.025371496 -0.017411025 0.02964491 0.048189454
0002b0 48 07 dc bc b9 cd 34 3d aa 4c 19 3d d9 a7 60 3c
       -0.02685894 0.044141505 0.03742663 0.013711893
0002c0 c3 0c 3e 3d cf 6b 47 3d 6e 5a 44 3d 2b 1c f8 3c
       0.04639889 0.0486868 0.047937803 0.030286869
0002d0 13 a5 04 bd e2 cf 69 3c d8 5c b0 3c de 91 29 3d
       -0.03238399 0.0142707545 0.021528646 0.041398875
0002e0 94 37 c7 bc 9d e1 d9 bb 05 29 48 3d 0e 4b 0a 3d
       -0.024318494 -0.0066492097 0.048867244 0.033762984
0002f0 48 c5 4b 3d 64 e9 84 bc eb b8 0a 3d b8 3e 1c 3d
       0.04974869 -0.01622457 0.033867758 0.03814575
000300 39 55 e8 bc 0a a1 50 bd 50 5a 93 bc 4e 12 4f 3d
       -0.02836095 -0.05093483 -0.0179874 0.050554566
000310 c4 a5 9d bc 0a 3c 36 bd 9a 81 08 3d a6 76 9b 3c
       -0.019244082 -0.04449085 0.033326723 0.018977474
000320 91 e8 42 3d f7 a7 cf bc a7 09 17 3d 05 4f 52 3d
       0.047585074 -0.025348647 0.03687444 0.05134489
000330 eb d9 46 bd 11 7d a3 3d f4 50 a1 bc f0 9b 2a bc
       -0.048547667 0.07982839 -0.019691922 -0.010413155
000340 17 2e 38 3d 2c 0a 35 3c d5 7c 3d 3d 0d f7 dc bc
       0.04496583 0.011049788 0.046261627 -0.026973272
000350 2c e2 65 bc 4d 17 4e bd a2 7a 15 3d cc 90 68 3d
       -0.014030974 -0.05031519 0.036493905 0.056778714
000360 b7 53 bd 3c 7e d0 96 bc 79 e4 c2 bc 4f 18 ab bc
       0.023111207 -0.018409964 -0.023790585 -0.020885615
000370 02 b0 9c 3d 5b b7 ba 3c 64 06 e4 3c 9c 43 92 3c
       0.07650758 0.022792509 0.027835079 0.017854504
000380 c4 4d 3b bc 7d bb 50 3d 97 c1 2e 3d de 77 43 bd
       -0.011432115 0.050960053 0.04266509 -0.047721736
000390 e4 ca 3e 3d 64 c3 7e 3d ce 75 e4 bc 2f 36 61 3d
       0.04658021 0.062198058 -0.027888205 0.054983314
0003a0 95 46 2b 3d 54 79 c8 bc c0 dc 3b 3d 79 01 98 3d
       0.04181536 -0.024471916 0.04586482 0.07422156
0003b0 90 78 c8 bc 53 c5 0b bd a3 a3 a7 3c 94 b6 53 bc
       -0.024471551 -0.03412373 0.02046377 -0.012921948
0003c0 96 92 b7 bc ca 23 37 bd fb 6c 30 3d e6 9b 09 bd
       -0.022408765 -0.044711865 0.043072682 -0.033595942
0003d0 0c 46 08 bd a7 e7 49 3d 67 6f 69 3d 88 8f 4a 3c
       -0.033269927 0.049293187 0.056991007 0.012363322
0003e0 1e e0 f6 bc a8 1f 4e bc 7a 10 22 bd e4 a9 d0 3c
       -0.030136164 -0.01258079 -0.039566495 0.025471635
0003f0 ad 47 55 3d 2e 26 3b 3d af 28 68 3c ab 2a 30 bd
       0.05207031 0.045690708 0.014169856 -0.04300944

model.2.weight f4 [256, 256]
000000 30 ae fa bc b0 fc ce 3c 60 bd b3 bc 75 cf 36 bd
       -0.030600637 0.025266975 -0.021940887 -0.04463144
000010 06 91 2c bd 76 d7 3c bd 4e c9 8f bc 00 60 61 bc
       -0.042130493 -0.046103917 -0.017552044 -0.013755798
000020 ae 42 5d 3c b3 f1 4f 3c fe 39 71 bd e4 e2 e6 3c
       0.013504667 0.012691903 -0.058893196 0.028184362
000030 3b 7a e8 bc c4 ac d1 bc 5c ba f7 3c 8a 3d 69 3d
       -0.028378597 -0.025595076 0.03024023 0.056943454
000040 0c 4b 03 bd d6 84 da 3c 28 71 9e 3c a0 eb 59 bb
       -0.032053992 0.02667467 0.019341066 -0.0033252016
000050 ac bc 79 3d 10 17 b8 bb d6 94 56 3d 70 c8 2d bd
       0.060970947 -0.0056179836 0.052388035 -0.04242748
000060 5c 9b 1e 3d 2c 9a ad b9 4a 9b 6b bd 3b 05 88 bd
       0.03872238 -0.00033111998 -0.057521142 -0.06641623
000070 9c 28 08 bd 7a 31 66 3d b7 4f 77 bd 48 7e 13 bc
       -0.033241853 0.05619953 -0.060378756 -0.009002276
000080 e6 59 09 3d c0 84 03 3c 0c 3b 04 3b 47 d7 66 3d
       0.033533 0.008027256 0.0020176796 0.05635765
000090 86 0e 82 bd 08 0b 9f 3c 8d f8 30 3d c3 dc d3 bc
       -0.063504264 0.01941444 0.043205786 -0.025862103
0000a0 1b 16 3d 3d 59 14 2f 3d 54 f4 33 bd f8 2d 6e bc
       0.04616366 0.042744014 -0.04393418 -0.014537327
0000b0 c6 7a 36 3d ca eb 99 bc ed d7 7a 3c be ed 45 bd
       0.04455068 -0.01878919 0.01531027 -0.04832243
0000c0 e5 b8 7d 3c 80 89 40 3c 47 af 01 3d c7 1f 53 bd
       0.015485977 0.011751533 0.031661298 -0.051543977
0000d0 33 4e 8f 3c 76 0e 53 3d c0 10 ab 3a e0 ba 0b 3d
       0.017493343 0.051527463 0.0013051257 0.034113765
0000e0 dd 80 22 bd f0 35 d4 bc e8 6a 2e 3c a4 e7 fa 3c
       -0.039673675 -0.025904626 0.010645606 0.030628033
0000f0 54 40 1a 3d 2c 05 29 bd 68 28 ec 3c 80 2c 58 3b
       0.037659004 -0.041264698 0.028827861 0.0032985508
000100 d8 91 46 bc 80 fe 0c 3b 94 bc a5 bc e4 74 7c bd
       -0.012119733 0.0021513999 -0.020231523 -0.061634913
000110 e5 f8 d1 bb 06 50 3c bd cd 90 b8 3c 49 ba 5a bc
       -0.0064078444 -0.045974754 0.022529984 -0.013350078
000120 86 df ea bc 04 af 7d 3d 39 74 28 3c 04 1b 62 3d
       -0.028671037 0.061934486 0.010281616 0.055201545
000130 92 e3 55 3d 1c cb 69 bd ff 88 11 bd f8 d4 b1 3c
       0.05221898 -0.057078466 -0.03553104 0.021707997
000140 cb 97 44 3d 60 d1 31 bd 01 ae eb 3b 48 35 c8 bc
       0.047996324 -0.043412566 0.0071923737 -0.024439469
000150 db b9 d1 bc da 44 4e 3d 19 96 4d 3d fb 31 ae 3c
       -0.025601318 0.05035863 0.050191972 0.021264067
000160 b8 a3 07 bd 25 e6 2d 3d 45 59 1e 3d 6d ef fc bc
       -0.03311512 0.04245581 0.038659353 -0.030875886
000170 2c e7 79 3d 22 9c 5d bc d0 f0 87 bc 08 56 c5 3c
       0.06101148 -0.0135259945 -0.01659432 0.024088874
000180 53 a8 34 3d 70 a2 dd 3c db 0e 3a 3d 84 08 28 3d
       0.04410584 0.027054995 0.045424324 0.041023746
000190 b1 0d 7e bc af 36 39 bd 65 a2 d3 bc 4c e2 52 bd
       -0.015506194 -0.045218166 -0.025834272 -0.051485345
0001a0 6b 53 47 3c 73 48 81 bc 5e 61 08 3d 80 69 22 3a
       0.0121658845 -0.015781617 0.03329598 0.00061955303
0001b0 6c 9d e8 3c 94 fb e0 3c a6 d0 14 bd 2e 11 78 bd
       0.028395377 0.027463712 -0.036331795 -0.06056326
0001c0 ee 0b 86 bb ed 1a b9 bc 1a f7 b5 bc 02 81 ff bc
       -0.0040907776 -0.022595847 -0.022212554 -0.031189445
0001d0 34 8e 98 bc ec 76 cc bc b8 2f a9 3c f2 a9 07 bd
       -0.018622495 -0.02495905 0.020652637 -0.033121057
0001e0 52 85 3c bd aa a3 89 bd 95 4e 05 3b a0 69 65 3c
       -0.04602558 -0.067206696 0.0020341028 0.014002234
0001f0 14 fa 71 3d 00 4e b6 39 96 b9 df bc 30 b9 c6 3c
       0.059076384 0.0003477186 -0.027310174 0.024258226
000200 20 cd 56 bc 40 59 d3 bb c9 8b 80 3b 21 5b 64 bd
       -0.013110429 -0.0064498484 0.0039229137 -0.05575097
000210 86 e1 d9 3b a6 05 2f 3d 09 91 b1 bc f8 ad 6e bc
       0.006649199 0.042729996 -0.021675603 -0.014567845
000220 9a 2a c8 bc a7 18 92 3c f2 89 bb 3a 04 0b a9 bc
       -0.024434377 0.01783402 0.0014308079 -0.020635135
000230 3a ba 48 3d b8 1e e0 3c 4a 5a 07 3b a1 a9 3a bd
       0.049005724 0.027358398 0.0020653182 -0.045571927
000240 90 49 f9 3b b2 da 6e bd 7e 68 0e bd 60 6e 6a 3c
       0.0076076463 -0.058314033 -0.03476762 0.014308542
000250 1e 87 67 bd 01 69 fc 3b ac b7 d7 3c ec 30 41 3d
       -0.056525342 0.007702947 0.026332699 0.047165796
000260 6a 67 15 bd 30 fa 20 3d ed e8 e7 bc ec 0e f4 3c
       -0.036475576 0.039301097 -0.02830931 0.029792272
000270 30 74 f1 3b 52 8d 11 bd b0 5b c0 3b 06 61 3e 3d
       0.007368587 -0.035535164 0.005870305 0.046479248
000280 d0 78 87 3b 8c d9 5a bb 84 d6 7e bd cd f2 96 3b
       0.004134275 -0.0033393828 -0.062216297 0.004606581
000290 4e b7 9f bb d4 d6 12 3d 20 f2 8a 3c f0 56 c4 bc
       -0.0048741465 0.035849407 0.016961157 -0.023967236
0002a0 ee 5f 2f bd 9c d3 a3 3c d8 df cb 3c ad 80 49 3d
       -0.042816095 0.019998364 0.02488701 0.04919498
0002b0 3e fd 26 bd f4 c8 9c 3c a7 63 71 bd 18 6b 6e bd
       -0.040768854 0.01913879 -0.058932927 -0.0582076
0002c0 e0 d5 33 ba a5 52 31 3c 51 ab 29 bd 05 05 21 bd
       -0.0006860178 0.010822927 -0.041423146 -0.039311428
0002d0 88 e4 1f 3d 77 f0 d5 bc 18 66 43 3d ab fb 15 bd
       0.039036304 -0.02611564 0.047704786 -0.036616962
0002e0 a8 cb 59 3c fb 50 0a 3d 9f 61 19 3d 2b b9 f8 bc
       0.013293184 0.033768635 0.037446614 -0.030361732
0002f0 02 30 62 bd 94 22 79 3d 58 e5 30 bd 44 07 16 3b
       -0.055221565 0.060823992 -0.04318747 0.0022892514
000300 80 5b 56 ba 78 e8 4b 3d 90 0c f7 3c fc ca cc 3c
       -0.0008177087 0.049782246 0.030157357 0.024999134
000310 c0 69 10 3b b6 ff 73 bd 1d b9 a9 bc 84 13 85 bc
       0.0022035688 -0.059570037 -0.020718152 -0.016244657
000320 ba c8 fe bc b0 9f b1 bc 2d 5d 9c bc 49 aa 15 bd
       -0.031101573 -0.02168259 -0.019087398 -0.03653935
000330 e8 38 87 3c 7d fb 4e 3d 00 a6 bd 3b 10 6e 9f 3c
       0.016506627 0.050532807 0.005787611 0.019461662
000340 5c 3e 9e bc c2 16 ee bc 99 49 af 3c c4 37 98 bc
       -0.019316845 -0.029063586 0.021397399 -0.018581279
000350 38 40 75 3c 3c 4a e1 bc a9 28 68 bd ee ec 9c 3c
       0.014968924 -0.027501218 -0.0566794 0.019155946
000360 0e ce 45 bd 2a f4 7b 3d 6c ee d8 bc 80 96 bf bb
       -0.048292212 0.06151215 -0.026480876 -0.0058467984
000370 aa b8 85 bd 5f 4f fd 3c eb 31 41 bd 68 dd 59 bd
       -0.065293625 0.030921636 -0.047166746 -0.053189665
000380 00 74 b8 bb 6a cd 1a 3d 8b b9 a9 bc 2a 2f 4a 3d
       -0.0056290627 0.037793554 -0.020718357 0.049361385
000390 d4 3e 81 bc d7 43 86 bd fc 6b 8a bc c9 7a 1a bd
       -0.01577703 -0.06555908 -0.016897194 -0.037714753
0003a0 96 d1 e6 3b 06 1a 62 bd d2 aa 20 bd 61 77 89 3b
       0.0070440276 -0.0552006 -0.039225407 0.0041951393
0003b0 b0 ac 16 bc 38 17 7d bc c5 76 9f 3c 40 01 95 3b
       -0.009196445 -0.01544743 0.019465813 0.004547268
0003c0 5c e6 19 3d 16 e5 3a bd ef 75 65 3d bc 0c eb bc
       0.037573203 -0.04562863 0.056020673 -0.028692596
0003d0 bc 4e 73 3d cd 43 26 3d 17 7c 8b bc ba d6 a7 3c
       0.05940126 0.040592004 -0.017026944 0.020488132
0003e0 88 2e e6 3c a8 1d db 3c 24 06 5e 3d 2b ee 77 bc
       0.02809836 0.02674754 0.054205075 -0.015132467
0003f0 02 ce 05 bd 2f 4f 74 bd 32 83 88 bd 70 b7 c1 3b
       -0.032667167 -0.059645828 -0.066656485 0.00591176

model.2.bias f4 [256]
000000 10 0d 9a bb 7e 39 7f bd b4 45 16 3e b3 7c 36 3d
       -0.004701264 -0.06231069 0.14675027 0.044552516
000010 3d cd 98 3c af 64 bd 3d 13 9f f9 3d fd 3d 86 bc
       0.018652553 0.092477195 0.12188544 -0.01638698
000020 8b 46 7e bd 11 cd 02 bd 84 d3 4a bd 97 6d c8 bc
       -0.062078994 -0.031933848 -0.049518123 -0.024466319
000030 ba 58 a8 3c 27 e9 be 3d 59 20 d9 bc a0 58 a5 3c
       0.02055012 0.09321814 -0.026504682 0.020183861
000040 fa ed c8 3a 7a 9d 81 bc 7d 95 81 3d 3a ad e2 3d
       0.0015329712 -0.015822161 0.06327341 0.110681966
000050 36 7f b8 bc 25 bd c1 3d 22 51 35 bd d8 e7 41 bd
       -0.022521596 0.094599046 -0.044266827 -0.047340244
000060 b0 63 05 bd 4b 48 84 3b 00 2c e4 3d 0e cf 83 3d
       -0.032565773 0.0040369383 0.11141205 0.06435977
000070 7c c8 dd 3c ec f0 78 bd 62 f0 55 bd 31 fe 97 3d
       0.027073137 -0.060776636 -0.0522312 0.0742153
000080 77 76 44 bd f7 0c d8 bc e7 5b f7 3b b8 49 48 3d
       -0.04796454 -0.02637337 0.0075487974 0.04889843
000090 8e 30 42 bd fe 6e 07 bd 3c 9a 5c bd c8 33 92 3d
       -0.047409587 -0.033064835 -0.053858027 0.07138783
0000a0 9f ac 81 bd e0 68 92 3d a2 3d 3a bd a3 64 ab 3d
       -0.06331753 0.071489096 -0.045468934 0.08368804
0000b0 2e 4b 35 3d 12 31 9f 3b c9 67 eb 3d 2c 51 2d bd
       0.04426115 0.0048581446 0.11494405 -0.04231374
0000c0 b0 42 9f 3d 5f 53 43 3d 51 e2 46 3d 0f 3b 0f bb
       0.077763915 0.04768693 0.048555676 -0.002185527
0000d0 86 78 02 bd 16 47 b3 3d f7 c6 29 bd ac 00 0a bd
       -0.03185322 0.08753793 -0.041449513 -0.033692047
0000e0 11 41 2c bd 94 e0 49 bd 6c ff 7f 3d dc 18 58 bd
       -0.04205424 -0.04928644 0.06249945 -0.052758083
0000f0 9c fb 9f 3d ce 89 e3 3d b5 e5 ae 3a ac ed 3c bd
       0.078116626 0.111102685 0.0013343605 -0.0461251
000100 6b d3 ef bc d5 60 b8 3d bb e2 a3 3d d4 a0 52 3d
       -0.029275617 0.09002844 0.0800223 0.05142291
000110 1e 6d 6e 3d 09 09 b4 3d 1e e9 0a bd cd cf f7 3b
       0.05820953 0.08790786 -0.033913724 0.0075626136
000120 c3 14 d0 3d f5 48 6c 3d 72 37 1c 3d f6 78 d6 3b
       0.1016021 0.057686765 0.038138814 0.0065451814
000130 80 88 dc 3d 77 7c 07 3e fd b8 90 bc 81 44 2c 3b
       0.10768223 0.13231073 -0.017666334 0.0026285949
000140 fe 9f 68 3d 60 85 76 3d e7 b1 97 3d e3 37 98 3d
       0.056793205 0.06018579 0.07406979 0.074325345
000150 4e 69 6f bc 66 86 29 bc b8 14 2b 3d cb 6d 0d 3e
       -0.014612509 -0.0103469845 0.041767806 0.13811414
000160 e9 94 ac 3d ff 5d 02 3e 12 1c 3f bb 2d 22 17 bd
       0.0842684 0.12731169 -0.0029161018 -0.036897827
000170 5c aa 9a 3d a7 d3 31 3d 28 22 87 3d 27 eb 0b 3d
       0.07552025 0.043414738 0.06598312 0.034159806
000180 e0 c5 53 bc b2 84 58 bd b7 0f 9d 3d 7f 27 af bc
       -0.012925595 -0.052860923 0.07669013 -0.021381138
000190 91 1c b9 bc be 22 a6 bc 18 0c 67 b9 7a 48 32 bd
       -0.02259663 -0.020280238 -0.00022034382 -0.04352615
0001a0 76 5b ea bb 1e 3e b6 3d e2 e9 05 bd e9 4e 97 bc
       -0.0071520163 0.08898567 -0.03269375 -0.018470244
0001b0 51 12 2d bd 9c ab 0a 3c 12 1a c7 3c 07 34 a5 3d
       -0.042253796 0.008463766 0.024304423 0.08066564
0001c0 8f ab ac bb e7 4b bb 3d 88 c4 19 bd 5b c7 9b 3d
       -0.005269475 0.091453366 -0.037540942 0.076063834
0001d0 db 7a 92 bd 0f ac c4 3d be fb 7d 3d 7f 68 bd 3d
       -0.07152339 0.0960313 0.06200766 0.09248447
0001e0 ca a8 07 bc 05 a3 e7 3d 2f d6 5b 3d e4 86 77 bd
       -0.008279989 0.113103904 0.05367106 -0.060431376
0001f0 99 b0 3f 3d da 0f 7c bd ea 7d 02 3e 61 2a 0f 3d
       0.046799276 -0.061538555 0.12743345 0.034952525
000200 15 67 16 bd 05 e9 77 3d 65 b3 22 bd 2f 9d 9f 3d
       -0.0367194 0.06052496 -0.039721865 0.07793652
000210 18 a6 ba 3c f6 95 6c bd eb 7e 0c 3d 96 ba b7 3c
       0.022784278 -0.0577602 0.034300726 0.022427838
000220 e9 87 1f bd bc c2 f2 3d 0d 78 65 bd bb 30 66 bd
       -0.038947973 0.11853549 -0.056022692 -0.056198817
000230 be ea 53 3d c8 97 6c 3d df 44 d2 ba 9d 9a 83 3c
       0.05173754 0.057761937 -0.0016042254 0.016064936
000240 a8 36 75 bd 7e ae 84 3d 48 b0 7e bd 78 9c 9e 3d
       -0.059866577 0.06478594 -0.062179834 0.07744688
000250 46 ca 98 3c a9 ae 22 bd 89 81 43 3d 90 8c a7 bc
       0.018651139 -0.03971735 0.047730956 -0.020452768
000260 c5 79 65 3d bd 5e 32 bd 52 e9 90 3d 6f 2b 07 bd
       0.05602433 -0.04354738 0.07075752 -0.033000406
000270 30 00 47 bd 94 ca 92 3c 7f d4 10 bd 58 16 2e 3d
       -0.048584163 0.017918862 -0.035358902 0.042501777
000280 ab 5b f3 3c 1d b7 26 3d cc 16 93 bc 9a bd 58 3d
       0.029706797 0.040701974 -0.017955206 0.052915193
000290 b4 15 96 bc 27 53 3c 3d 1e 22 fd bb b0 88 6a bb
       -0.018320896 0.045977738 -0.0077250144 -0.0035787039
0002a0 3e 93 a1 3d 88 84 1e bd da fb 78 3c 70 54 75 bd
       0.07889412 -0.03870061 0.015196765 -0.05989498
0002b0 1b 88 10 bc 98 b4 43 bd 40 b2 35 bc f2 30 a1 3d
       -0.008821513 -0.04777965 -0.011089861 0.07870664
0002c0 b8 34 3f bd 05 84 00 3d 6e a0 23 bd d2 3e 7c bd
       -0.046681136 0.031375904 -0.03994792 -0.061583348
0002d0 db 56 9d 3d e8 3f bc bc 8a 23 d7 3b fa f2 5a bd
       0.07682582 -0.022979692 0.006565516 -0.053454377
0002e0 b4 17 6f 3c 17 47 3a 3d 8c de 06 bd 16 21 7a bd
       0.014593054 0.045477953 -0.03292708 -0.06106671
0002f0 57 f4 e8 bc 3b ef a7 3d d0 08 7b 3d 35 7c 14 3d
       -0.028436823 0.081999265 0.0612877 0.036251266
000300 8f 3e 0d 3e 13 6d 5f 3c fd 4a 07 bd d8 c5 47 bc
       0.13793395 0.013636845 -0.0330305 -0.012193166
000310 09 e0 df 3c 9a 64 12 bd f1 a9 ed 3d 0f a0 b3 3d
       0.027328508 -0.035740472 0.116046794 0.08770763
000320 61 2f 34 bd 2d 41 4d 3c 9c f7 84 bd 5b 3b a0 3d
       -0.043990497 0.012527746 -0.0649254 0.07823821
000330 2e 59 17 3d af 99 4b 3d c7 d6 52 bc 79 39 b4 3c
       0.036950283 0.04970711 -0.01286859 0.022000061
000340 a4 3a 66 bd 1f d3 ab 3a 65 f5 74 3d 10 9e 4b 3d
       -0.056208268 0.0013109184 0.05980434 0.049711287
000350 99 f9 8d bd 6d 78 ab 3d 44 d5 41 bd 7a 21 01 bd
       -0.069323726 0.08372579 -0.047322527 -0.031526066
000360 7d 2a 74 bd 8e 5d a1 3c cc 6e c4 bc d6 42 45 3d
       -0.059610832 0.01969793 -0.023978613 0.048159443
000370 cc 22 78 bd b1 da 10 3d 36 50 05 3e e5 c1 1d bd
       -0.06058006 0.03536481 0.1301888 -0.03851499
000380 f4 24 e9 bc fb 3d 19 bc 66 f4 72 3c d2 0d d8 3d
       -0.028460003 -0.009353156 0.014828777 0.10549511
000390 a3 96 54 3c 0f 01 5c bd 04 fc 1f bd 51 d6 00 3e
       0.012975368 -0.053711947 -0.0390587 0.12581755
0003a0 d2 22 88 3d ff 99 c1 3d 01 c9 d2 3d 17 b9 82 bc
       0.066472664 0.094532005 0.10292245 -0.015957398
0003b0 a9 0f 6f bd 96 06 66 bd f1 5e 18 3d 5e 28 45 bd
       -0.058364544 -0.056158625 0.03719992 -0.0481342
0003c0 aa a2 74 3d 16 c4 e9 3c 5c c7 6d bd 0f fc 5c 3d
       0.05972544 0.028535884 -0.058051452 0.05395132
0003d0 f3 46 39 bd 97 3c 06 3e dc 1b f1 3d 95 ce a5 3d
       -0.045233678 0.1310905 0.11772892 0.08096043
0003e0 a0 c6 e5 bc 1d fe a4 3b 88 be f0 3d db ae 4b 3c
       -0.028048813 0.0050351755 0.11755091 0.0124318255
0003f0 e7 ad 57 3d 70 cf 43 bd ce a3 00 3e bd f9 a5 3d
       0.05265608 -0.04780525 0.12562487 0.081042744

model.4.weight f4 [9, 256]
000000 81 03 29 bd a4 04 87 3c 04 ff a7 3e 4d 64 80 bd
       -0.041263107 0.016481705 0.3281175 -0.06269131
000010 5f 3b 08 be 32 75 ed be da 47 9c 3d 4d bb 4d 3e
       -0.13303898 -0.46378475 0.07630892 0.20090981
000020 d1 35 63 bd 39 27 54 bd 10 10 88 bc bc 95 52 bd
       -0.055471245 -0.05179522 -0.016609222 -0.05141233
000030 b5 00 93 be 9d 09 1c 3e 80 02 7a bc 89 0a 23 3e
       -0.28711477 0.15238042 -0.015259385 0.15921988
000040 65 72 cb 3c b0 b3 fa bc 6d b0 08 3f 34 b4 1b bd
       0.024834821 -0.03060326 0.53394204 -0.038013652
000050 e1 5e fb 3c f6 c7 8d bd 68 05 a8 bc 6c c5 9b bc
       0.03068489 -0.06922905 -0.02051039 -0.019015037
000060 42 13 38 bd 0b 34 ea 3a dc 5e 29 be 0b 60 85 3e
       -0.04494024 0.0017868293 -0.16540092 0.26049837
000070 fe f5 b6 3d fa 5c 13 bc 81 c3 1c bd 36 c8 c2 be
       0.08933638 -0.008994335 -0.038272385 -0.38043374
000080 ff 91 1c bb a9 3c 31 bd be d9 85 3e 93 25 0d bf
       -0.0023890731 -0.04327074 0.26142687 -0.5513546
000090 44 ba 9a bc a2 b0 5d bd a0 09 c4 bb 73 06 04 3e
       -0.018887646 -0.05412353 -0.0059825927 0.12893085
0000a0 ef 70 19 3d e6 d2 01 bf 73 71 37 3d bd 97 f3 bc
       0.037461217 -0.5071243 0.044785928 -0.02973544
0000b0 97 47 fc be 76 34 16 3d 26 7b b5 3e dc f1 50 bd
       -0.4927337 0.036671124 0.35445517 -0.051011905
0000c0 18 a2 de 3d d2 e0 8b be a6 31 46 be d8 c0 7f 3d
       0.10870761 -0.27319962 -0.19354877 0.06243977
0000d0 b0 4c a8 3c a4 26 76 3e c4 22 e3 3c 68 a5 07 3d
       0.02054438 0.24038178 0.027726538 0.033116728
0000e0 a5 24 53 bd a0 21 5d 3c c6 5d b2 3d ee 92 00 bd
       -0.05154862 0.013496786 0.08709292 -0.031390123
0000f0 de 75 40 be 64 34 65 3e 96 62 54 be 70 a8 7a bd
       -0.18794963 0.22383267 -0.20740733 -0.06119579
000100 c7 08 9f bb a4 ef 01 3e 7c e2 09 bf 09 d9 19 3e
       -0.0048533413 0.12689072 -0.5386121 0.15024199
000110 8f 58 25 be 3e 43 3f 3e 0b d7 66 bd f0 88 e8 be
       -0.16147064 0.18677995 -0.056357425 -0.45416975
000120 dd 62 00 3e 8c 67 9c bd 14 66 87 be f6 3d 16 bd
       0.12537713 -0.076369375 -0.26445067 -0.036680184
000130 27 73 42 3e fe 2c 39 3e 8d ae 54 bc 2f 31 09 be
       0.1898924 0.1808357 -0.012981069 -0.13397668
000140 a0 3c 9a 3d f3 75 1d bf 85 68 ae be bd 84 13 3d
       0.075310946 -0.615081 -0.34064117 0.03601526
000150 42 b2 f5 bc ff b9 aa 3d 57 be 89 be 76 c4 9f bc
       -0.029992227 0.08336257 -0.2690303 -0.01950286
000160 ab 50 0a bf fb a1 92 be 5b 78 75 bc 42 cd 9c 3c
       -0.5402934 -0.28639206 -0.014982308 0.019140843
000170 6e e8 23 3e 6e a5 17 bf 62 0a 56 3e a6 fe 58 3e
       0.16006634 -0.592368 0.20902398 0.2119089
000180 68 7c 42 bc ee d8 21 bd 7c 06 ec be b8 2e 75 be
       -0.011870481 -0.03951352 -0.46098697 -0.23943603
000190 d2 95 5c bd fd ab 0d bc 6d ff d9 bc 74 dd 24 3d
       -0.053853817 -0.008646962 -0.026611054 0.040250257
0001a0 c1 a9 7a 3d ae f3 83 3e 4d 3e 86 be bf 67 08 bf
       0.061197046 0.2577185 -0.26219407 -0.53283304
0001b0 7d 9b f2 bc 60 86 30 bd 74 2b 14 be 0a 93 c9 be
       -0.029615158 -0.0430969 -0.14469701 -0.39369994
0001c0 ab 7f 12 bd 1f d9 f0 be cc a5 9c 3c e8 c4 63 3e
       -0.035766285 -0.4704065 0.019122027 0.22243083
0001d0 df 67 cb bc cf c2 63 3e bd 1b 86 be 83 01 dc be
       -0.024829803 0.22242282 -0.26193038 -0.42969903
0001e0 ec 62 8b bb 0b 13 82 3e 98 f7 6f 3e 60 32 4d bd
       -0.0042537358 0.25405154 0.23434293 -0.05009687
0001f0 61 b5 41 3e 20 06 71 bd e7 ad c3 be 2d c7 4e be
       0.18916847 -0.058843732 -0.38218614 -0.20193167
000200 fd 7a 38 3b 4a 30 88 bc af df 80 3c d5 25 3d 3e
       0.0028149479 -0.016624589 0.01573166 0.18471463
000210 3a 7a 0b bf b6 84 9d 3a 0d cf 47 3e 7d 08 44 bd
       -0.5448338 0.00120177 0.19512577 -0.047859658
000220 3e d1 78 bd df 09 bc be 65 0d 42 bd 44 7c 86 bd
       -0.060746424 -0.3672628 -0.047376055 -0.065666705
000230 d6 57 ac be 46 86 e7 3d 08 0b 49 3c f8 c4 71 3e
       -0.33660764 0.113049075 0.012270696 0.23610294
000240 08 48 11 bc fa 6c a1 3d 16 94 07 3d 20 52 f6 3d
       -0.008867271 0.07882114 0.03310021 0.12027383
000250 91 4e 2e 3d f5 4c 54 3d 0c 58 45 3e c0 61 de 3c
       0.042555396 0.051831204 0.19271868 0.02714622
000260 9e d6 3d be 65 53 21 be 3a 9c 98 3d 79 7d 16 bc
       -0.18538901 -0.15754469 0.07451673 -0.009185188
000270 50 a5 39 3d a5 fa 98 3e 63 46 a9 bb 36 48 1e bf
       0.04532367 0.29878727 -0.0051658615 -0.61828935
000280 47 42 9c be 21 8f 65 3e a8 a6 71 3c dd 63 ed 3c
       -0.30519316 0.2241788 0.014749207 0.028978283
000290 82 ab 96 be f7 8f 78 3e 27 6d 7e 3d fd f2 00 bf
       -0.29427725 0.24273668 0.062115815 -0.5037077
0002a0 8b 12 49 be 18 9d 3f 3d 95 66 4d be 9c 22 bf bc
       -0.1963598 0.046780676 -0.20058663 -0.023331933
0002b0 21 2e 02 bd 10 01 d0 3c fe 14 41 bd 62 f8 fd be
       -0.031782273 0.025391132 -0.04713916 -0.49603564
0002c0 1c 36 cc bc 22 bb 30 3c d0 af d9 bc 9e b1 21 bd
       -0.024928145 0.010786803 -0.026573092 -0.03947603
0002d0 d0 a1 0b 3e b3 91 f5 3c a4 dc 60 3e d0 53 1c 3c
       0.13635945 0.029976701 0.21959168 0.009541467
0002e0 83 c4 97 be 1c da b0 3e 71 1b 23 3c 70 75 a6 bb
       -0.29642114 0.34541404 0.009955273 -0.0050799176
0002f0 76 ca 98 3b 6b f4 b3 be 98 45 a3 3d 66 3c cb 3e
       0.004662807 -0.35147414 0.07972258 0.39694518
000300 48 4b 1e be ed 67 82 3e 7d 21 5c bd fc 36 98 3c
       -0.15458405 0.25469914 -0.053742874 0.018580906
000310 fb 00 bd 3e b6 03 8a 3c e2 88 17 bf 89 e6 71 be
       0.3691481 0.016847473 -0.5919324 -0.23623098
000320 2f f4 8d bd 98 6d 83 3c 94 25 57 bd af bf 03 bd
       -0.0693134 0.01604347 -0.05252607 -0.032165226
000330 27 b4 91 3e fc 01 dd be a2 67 fe bc 03 bb 81 be
       0.28457758 -0.43165576 -0.031055275 -0.2533799
000340 30 29 df bb b5 19 bb 3c 3d fb 9c 3d e1 a7 31 3e
       -0.00681033 0.022839407 0.076651074 0.17349197
000350 e7 10 04 bd 5a 24 e8 bd b0 5e 72 bc fe 05 8f be
       -0.03224268 -0.113350585 -0.014793083 -0.2793426
000360 14 d2 50 bc db 1f 17 3e 98 7d 35 3d c6 e5 12 bf
       -0.012745399 0.14758246 0.04430923 -0.57381856
000370 86 4b 57 3d 82 c3 3c 3d 21 27 d3 3e 96 c8 1d 3c
       0.05256226 0.04608489 0.4124079 0.009630343
000380 cf ab 0c bd 60 7c b4 3c 3c 83 ac 3d 0e c8 df be
       -0.034343537 0.022031963 0.084234685 -0.43707317
000390 f7 f9 80 3e 9a 19 ad 3c a0 95 79 3d 5b bd c2 3e
       0.25190708 0.021130372 0.06093371 0.38035092
0003a0 c2 20 82 3e 4d 1f 6f 3e c2 90 44 3e 1e c8 be 3c
       0.25415617 0.23351784 0.19195846 0.023288783
0003b0 6f c0 3b bd 24 e9 ae bc 5c fc 16 3e 01 0c 6e 3d
       -0.045837816 -0.021351404 0.14744705 0.058116917
0003c0 ec 56 e1 be 4f 13 31 3e 10 d7 6a 3c 93 f0 a0 be
       -0.4401163 0.17292522 0.014333501 -0.31433544
0003d0 67 49 27 3c 14 4b ca be 94 2b a7 3e 73 d2 d3 be
       0.010210372 -0.39510405 0.32650435 -0.41371498
0003e0 c0 48 26 3c 39 dd 27 3c 05 00 c5 3d 17 bb 14 be
       0.010149181 0.010245615 0.09619144 -0.14524494
0003f0 d0 9d 23 bd 10 11 59 3d 8c 52 28 3e f5 1f 4d 3e
       -0.039945424 0.052994788 0.16437739 0.20031722

model.4.bias f4 [9]
000000 9c 96 f9 3d 2c eb a4 bc 66 ee 63 3d 84 33 ee bd
       0.121869296 -0.02013167 0.055647276 -0.116309196
000010 cd e0 ba 3b 80 35 10 bc 5c 8d bc bd a9 12 e3 3b
       0.005703068 -0.008801818 -0.0920665 0.0069297147
000020 3f ba 99 3d
       0.07506227
